<?xml version="1.0" ?>
<net name="picodet_s_416_coco" version="10">
	<layers>
		<layer id="0" name="image" type="Parameter" version="opset1">
			<data shape="1, 3, 416, 416" element_type="f16"/>
			<output>
				<port id="0" precision="FP16" names="image">
					<dim>1</dim>
					<dim>3</dim>
					<dim>416</dim>
					<dim>416</dim>
				</port>
			</output>
		</layer>
		<layer id="1" name="data_mul_2242553852" type="Const" version="opset1">
			<data element_type="f16" shape="1, 3, 1, 1" offset="0" size="6"/>
			<output>
				<port id="0" precision="FP16">
					<dim>1</dim>
					<dim>3</dim>
					<dim>1</dim>
					<dim>1</dim>
				</port>
			</output>
		</layer>
		<layer id="2" name="image/scale/Fused_Mul_" type="Multiply" version="opset1">
			<data auto_broadcast="numpy"/>
			<input>
				<port id="0" precision="FP16">
					<dim>1</dim>
					<dim>3</dim>
					<dim>416</dim>
					<dim>416</dim>
				</port>
				<port id="1" precision="FP16">
					<dim>1</dim>
					<dim>3</dim>
					<dim>1</dim>
					<dim>1</dim>
				</port>
			</input>
			<output>
				<port id="2" precision="FP16">
					<dim>1</dim>
					<dim>3</dim>
					<dim>416</dim>
					<dim>416</dim>
				</port>
			</output>
		</layer>
		<layer id="3" name="data_add_2242753291" type="Const" version="opset1">
			<data element_type="f16" shape="1, 3, 1, 1" offset="6" size="6"/>
			<output>
				<port id="0" precision="FP16">
					<dim>1</dim>
					<dim>3</dim>
					<dim>1</dim>
					<dim>1</dim>
				</port>
			</output>
		</layer>
		<layer id="4" name="image/mean/Fused_Add_" type="Add" version="opset1">
			<data auto_broadcast="numpy"/>
			<input>
				<port id="0" precision="FP16">
					<dim>1</dim>
					<dim>3</dim>
					<dim>416</dim>
					<dim>416</dim>
				</port>
				<port id="1" precision="FP16">
					<dim>1</dim>
					<dim>3</dim>
					<dim>1</dim>
					<dim>1</dim>
				</port>
			</input>
			<output>
				<port id="2" precision="FP16">
					<dim>1</dim>
					<dim>3</dim>
					<dim>416</dim>
					<dim>416</dim>
				</port>
			</output>
		</layer>
		<layer id="5" name="3783" type="Const" version="opset1">
			<data element_type="f16" shape="24, 3, 3, 3" offset="12" size="1296"/>
			<output>
				<port id="0" precision="FP16" names="3783">
					<dim>24</dim>
					<dim>3</dim>
					<dim>3</dim>
					<dim>3</dim>
				</port>
			</output>
		</layer>
		<layer id="6" name="Conv_0/WithoutBiases" type="Convolution" version="opset1">
			<data strides="2, 2" dilations="1, 1" pads_begin="1, 1" pads_end="1, 1" auto_pad="explicit"/>
			<input>
				<port id="0" precision="FP16">
					<dim>1</dim>
					<dim>3</dim>
					<dim>416</dim>
					<dim>416</dim>
				</port>
				<port id="1" precision="FP16">
					<dim>24</dim>
					<dim>3</dim>
					<dim>3</dim>
					<dim>3</dim>
				</port>
			</input>
			<output>
				<port id="2" precision="FP16">
					<dim>1</dim>
					<dim>24</dim>
					<dim>208</dim>
					<dim>208</dim>
				</port>
			</output>
		</layer>
		<layer id="7" name="Conv_0/Dims13175" type="Const" version="opset1">
			<data element_type="f16" shape="1, 24, 1, 1" offset="1308" size="48"/>
			<output>
				<port id="0" precision="FP16">
					<dim>1</dim>
					<dim>24</dim>
					<dim>1</dim>
					<dim>1</dim>
				</port>
			</output>
		</layer>
		<layer id="8" name="Conv_0" type="Add" version="opset1">
			<data auto_broadcast="numpy"/>
			<input>
				<port id="0" precision="FP16">
					<dim>1</dim>
					<dim>24</dim>
					<dim>208</dim>
					<dim>208</dim>
				</port>
				<port id="1" precision="FP16">
					<dim>1</dim>
					<dim>24</dim>
					<dim>1</dim>
					<dim>1</dim>
				</port>
			</input>
			<output>
				<port id="2" precision="FP16" names="conv2d_135.tmp_0">
					<dim>1</dim>
					<dim>24</dim>
					<dim>208</dim>
					<dim>208</dim>
				</port>
			</output>
		</layer>
		<layer id="9" name="Constant_153537" type="Const" version="opset1">
			<data element_type="f16" shape="1, 1, 1, 1" offset="1356" size="2"/>
			<output>
				<port id="0" precision="FP16" names="Constant_1">
					<dim>1</dim>
					<dim>1</dim>
					<dim>1</dim>
					<dim>1</dim>
				</port>
			</output>
		</layer>
		<layer id="10" name="Add_0" type="Add" version="opset1">
			<data auto_broadcast="numpy"/>
			<input>
				<port id="0" precision="FP16">
					<dim>1</dim>
					<dim>24</dim>
					<dim>208</dim>
					<dim>208</dim>
				</port>
				<port id="1" precision="FP16">
					<dim>1</dim>
					<dim>1</dim>
					<dim>1</dim>
					<dim>1</dim>
				</port>
			</input>
			<output>
				<port id="2" precision="FP16" names="Add_0">
					<dim>1</dim>
					<dim>24</dim>
					<dim>208</dim>
					<dim>208</dim>
				</port>
			</output>
		</layer>
		<layer id="11" name="Clip_0" type="Clamp" version="opset1">
			<data min="0" max="6"/>
			<input>
				<port id="0" precision="FP16">
					<dim>1</dim>
					<dim>24</dim>
					<dim>208</dim>
					<dim>208</dim>
				</port>
			</input>
			<output>
				<port id="1" precision="FP16" names="Clip_0">
					<dim>1</dim>
					<dim>24</dim>
					<dim>208</dim>
					<dim>208</dim>
				</port>
			</output>
		</layer>
		<layer id="12" name="Mul_0" type="Multiply" version="opset1">
			<data auto_broadcast="numpy"/>
			<input>
				<port id="0" precision="FP16">
					<dim>1</dim>
					<dim>24</dim>
					<dim>208</dim>
					<dim>208</dim>
				</port>
				<port id="1" precision="FP16">
					<dim>1</dim>
					<dim>24</dim>
					<dim>208</dim>
					<dim>208</dim>
				</port>
			</input>
			<output>
				<port id="2" precision="FP16" names="Mul_0">
					<dim>1</dim>
					<dim>24</dim>
					<dim>208</dim>
					<dim>208</dim>
				</port>
			</output>
		</layer>
		<layer id="13" name="Constant_054380" type="Const" version="opset1">
			<data element_type="f16" shape="1, 1, 1, 1" offset="1358" size="2"/>
			<output>
				<port id="0" precision="FP16" names="Constant_0">
					<dim>1</dim>
					<dim>1</dim>
					<dim>1</dim>
					<dim>1</dim>
				</port>
			</output>
		</layer>
		<layer id="14" name="Div_0" type="Multiply" version="opset1">
			<data auto_broadcast="numpy"/>
			<input>
				<port id="0" precision="FP16">
					<dim>1</dim>
					<dim>24</dim>
					<dim>208</dim>
					<dim>208</dim>
				</port>
				<port id="1" precision="FP16">
					<dim>1</dim>
					<dim>1</dim>
					<dim>1</dim>
					<dim>1</dim>
				</port>
			</input>
			<output>
				<port id="2" precision="FP16" names="batch_norm_0.tmp_4">
					<dim>1</dim>
					<dim>24</dim>
					<dim>208</dim>
					<dim>208</dim>
				</port>
			</output>
		</layer>
		<layer id="15" name="MaxPool_0" type="MaxPool" version="opset1">
			<data strides="2, 2" pads_begin="1, 1" pads_end="1, 1" kernel="3, 3" rounding_type="floor" auto_pad="explicit"/>
			<input>
				<port id="0" precision="FP16">
					<dim>1</dim>
					<dim>24</dim>
					<dim>208</dim>
					<dim>208</dim>
				</port>
			</input>
			<output>
				<port id="1" precision="FP16" names="pool2d_0.tmp_0">
					<dim>1</dim>
					<dim>24</dim>
					<dim>104</dim>
					<dim>104</dim>
				</port>
			</output>
		</layer>
		<layer id="16" name="3787" type="Const" version="opset1">
			<data element_type="f16" shape="24, 1, 1, 3, 3" offset="1360" size="432"/>
			<output>
				<port id="0" precision="FP16" names="3787">
					<dim>24</dim>
					<dim>1</dim>
					<dim>1</dim>
					<dim>3</dim>
					<dim>3</dim>
				</port>
			</output>
		</layer>
		<layer id="17" name="Conv_1/WithoutBiases" type="GroupConvolution" version="opset1">
			<data strides="2, 2" pads_begin="1, 1" pads_end="1, 1" dilations="1, 1" auto_pad="explicit"/>
			<input>
				<port id="0" precision="FP16">
					<dim>1</dim>
					<dim>24</dim>
					<dim>104</dim>
					<dim>104</dim>
				</port>
				<port id="1" precision="FP16">
					<dim>24</dim>
					<dim>1</dim>
					<dim>1</dim>
					<dim>3</dim>
					<dim>3</dim>
				</port>
			</input>
			<output>
				<port id="2" precision="FP16">
					<dim>1</dim>
					<dim>24</dim>
					<dim>52</dim>
					<dim>52</dim>
				</port>
			</output>
		</layer>
		<layer id="18" name="Conv_1/Dims12713" type="Const" version="opset1">
			<data element_type="f16" shape="1, 24, 1, 1" offset="1792" size="48"/>
			<output>
				<port id="0" precision="FP16">
					<dim>1</dim>
					<dim>24</dim>
					<dim>1</dim>
					<dim>1</dim>
				</port>
			</output>
		</layer>
		<layer id="19" name="Conv_1" type="Add" version="opset1">
			<data auto_broadcast="numpy"/>
			<input>
				<port id="0" precision="FP16">
					<dim>1</dim>
					<dim>24</dim>
					<dim>52</dim>
					<dim>52</dim>
				</port>
				<port id="1" precision="FP16">
					<dim>1</dim>
					<dim>24</dim>
					<dim>1</dim>
					<dim>1</dim>
				</port>
			</input>
			<output>
				<port id="2" precision="FP16" names="depthwise_conv2d_0.tmp_0">
					<dim>1</dim>
					<dim>24</dim>
					<dim>52</dim>
					<dim>52</dim>
				</port>
			</output>
		</layer>
		<layer id="20" name="3791" type="Const" version="opset1">
			<data element_type="f16" shape="48, 24, 1, 1" offset="1840" size="2304"/>
			<output>
				<port id="0" precision="FP16" names="3791">
					<dim>48</dim>
					<dim>24</dim>
					<dim>1</dim>
					<dim>1</dim>
				</port>
			</output>
		</layer>
		<layer id="21" name="Conv_2/WithoutBiases" type="Convolution" version="opset1">
			<data strides="1, 1" dilations="1, 1" pads_begin="0, 0" pads_end="0, 0" auto_pad="explicit"/>
			<input>
				<port id="0" precision="FP16">
					<dim>1</dim>
					<dim>24</dim>
					<dim>52</dim>
					<dim>52</dim>
				</port>
				<port id="1" precision="FP16">
					<dim>48</dim>
					<dim>24</dim>
					<dim>1</dim>
					<dim>1</dim>
				</port>
			</input>
			<output>
				<port id="2" precision="FP16">
					<dim>1</dim>
					<dim>48</dim>
					<dim>52</dim>
					<dim>52</dim>
				</port>
			</output>
		</layer>
		<layer id="22" name="Conv_2/Dims13103" type="Const" version="opset1">
			<data element_type="f16" shape="1, 48, 1, 1" offset="4144" size="96"/>
			<output>
				<port id="0" precision="FP16">
					<dim>1</dim>
					<dim>48</dim>
					<dim>1</dim>
					<dim>1</dim>
				</port>
			</output>
		</layer>
		<layer id="23" name="Conv_2" type="Add" version="opset1">
			<data auto_broadcast="numpy"/>
			<input>
				<port id="0" precision="FP16">
					<dim>1</dim>
					<dim>48</dim>
					<dim>52</dim>
					<dim>52</dim>
				</port>
				<port id="1" precision="FP16">
					<dim>1</dim>
					<dim>48</dim>
					<dim>1</dim>
					<dim>1</dim>
				</port>
			</input>
			<output>
				<port id="2" precision="FP16" names="conv2d_136.tmp_0">
					<dim>1</dim>
					<dim>48</dim>
					<dim>52</dim>
					<dim>52</dim>
				</port>
			</output>
		</layer>
		<layer id="24" name="Constant_154230" type="Const" version="opset1">
			<data element_type="f16" shape="1, 1, 1, 1" offset="1356" size="2"/>
			<output>
				<port id="0" precision="FP16" names="Constant_1">
					<dim>1</dim>
					<dim>1</dim>
					<dim>1</dim>
					<dim>1</dim>
				</port>
			</output>
		</layer>
		<layer id="25" name="Add_1" type="Add" version="opset1">
			<data auto_broadcast="numpy"/>
			<input>
				<port id="0" precision="FP16">
					<dim>1</dim>
					<dim>48</dim>
					<dim>52</dim>
					<dim>52</dim>
				</port>
				<port id="1" precision="FP16">
					<dim>1</dim>
					<dim>1</dim>
					<dim>1</dim>
					<dim>1</dim>
				</port>
			</input>
			<output>
				<port id="2" precision="FP16" names="Add_1">
					<dim>1</dim>
					<dim>48</dim>
					<dim>52</dim>
					<dim>52</dim>
				</port>
			</output>
		</layer>
		<layer id="26" name="Clip_1" type="Clamp" version="opset1">
			<data min="0" max="6"/>
			<input>
				<port id="0" precision="FP16">
					<dim>1</dim>
					<dim>48</dim>
					<dim>52</dim>
					<dim>52</dim>
				</port>
			</input>
			<output>
				<port id="1" precision="FP16" names="Clip_1">
					<dim>1</dim>
					<dim>48</dim>
					<dim>52</dim>
					<dim>52</dim>
				</port>
			</output>
		</layer>
		<layer id="27" name="Mul_1" type="Multiply" version="opset1">
			<data auto_broadcast="numpy"/>
			<input>
				<port id="0" precision="FP16">
					<dim>1</dim>
					<dim>48</dim>
					<dim>52</dim>
					<dim>52</dim>
				</port>
				<port id="1" precision="FP16">
					<dim>1</dim>
					<dim>48</dim>
					<dim>52</dim>
					<dim>52</dim>
				</port>
			</input>
			<output>
				<port id="2" precision="FP16" names="Mul_1">
					<dim>1</dim>
					<dim>48</dim>
					<dim>52</dim>
					<dim>52</dim>
				</port>
			</output>
		</layer>
		<layer id="28" name="Constant_053042" type="Const" version="opset1">
			<data element_type="f16" shape="1, 1, 1, 1" offset="1358" size="2"/>
			<output>
				<port id="0" precision="FP16" names="Constant_0">
					<dim>1</dim>
					<dim>1</dim>
					<dim>1</dim>
					<dim>1</dim>
				</port>
			</output>
		</layer>
		<layer id="29" name="Div_1" type="Multiply" version="opset1">
			<data auto_broadcast="numpy"/>
			<input>
				<port id="0" precision="FP16">
					<dim>1</dim>
					<dim>48</dim>
					<dim>52</dim>
					<dim>52</dim>
				</port>
				<port id="1" precision="FP16">
					<dim>1</dim>
					<dim>1</dim>
					<dim>1</dim>
					<dim>1</dim>
				</port>
			</input>
			<output>
				<port id="2" precision="FP16" names="batch_norm_2.tmp_4">
					<dim>1</dim>
					<dim>48</dim>
					<dim>52</dim>
					<dim>52</dim>
				</port>
			</output>
		</layer>
		<layer id="30" name="3795" type="Const" version="opset1">
			<data element_type="f16" shape="44, 24, 1, 1" offset="4240" size="2112"/>
			<output>
				<port id="0" precision="FP16" names="3795">
					<dim>44</dim>
					<dim>24</dim>
					<dim>1</dim>
					<dim>1</dim>
				</port>
			</output>
		</layer>
		<layer id="31" name="Conv_3/WithoutBiases" type="Convolution" version="opset1">
			<data strides="1, 1" dilations="1, 1" pads_begin="0, 0" pads_end="0, 0" auto_pad="explicit"/>
			<input>
				<port id="0" precision="FP16">
					<dim>1</dim>
					<dim>24</dim>
					<dim>104</dim>
					<dim>104</dim>
				</port>
				<port id="1" precision="FP16">
					<dim>44</dim>
					<dim>24</dim>
					<dim>1</dim>
					<dim>1</dim>
				</port>
			</input>
			<output>
				<port id="2" precision="FP16">
					<dim>1</dim>
					<dim>44</dim>
					<dim>104</dim>
					<dim>104</dim>
				</port>
			</output>
		</layer>
		<layer id="32" name="Conv_3/Dims13253" type="Const" version="opset1">
			<data element_type="f16" shape="1, 44, 1, 1" offset="6352" size="88"/>
			<output>
				<port id="0" precision="FP16">
					<dim>1</dim>
					<dim>44</dim>
					<dim>1</dim>
					<dim>1</dim>
				</port>
			</output>
		</layer>
		<layer id="33" name="Conv_3" type="Add" version="opset1">
			<data auto_broadcast="numpy"/>
			<input>
				<port id="0" precision="FP16">
					<dim>1</dim>
					<dim>44</dim>
					<dim>104</dim>
					<dim>104</dim>
				</port>
				<port id="1" precision="FP16">
					<dim>1</dim>
					<dim>44</dim>
					<dim>1</dim>
					<dim>1</dim>
				</port>
			</input>
			<output>
				<port id="2" precision="FP16" names="conv2d_137.tmp_0">
					<dim>1</dim>
					<dim>44</dim>
					<dim>104</dim>
					<dim>104</dim>
				</port>
			</output>
		</layer>
		<layer id="34" name="Constant_153414" type="Const" version="opset1">
			<data element_type="f16" shape="1, 1, 1, 1" offset="1356" size="2"/>
			<output>
				<port id="0" precision="FP16" names="Constant_1">
					<dim>1</dim>
					<dim>1</dim>
					<dim>1</dim>
					<dim>1</dim>
				</port>
			</output>
		</layer>
		<layer id="35" name="Add_2" type="Add" version="opset1">
			<data auto_broadcast="numpy"/>
			<input>
				<port id="0" precision="FP16">
					<dim>1</dim>
					<dim>44</dim>
					<dim>104</dim>
					<dim>104</dim>
				</port>
				<port id="1" precision="FP16">
					<dim>1</dim>
					<dim>1</dim>
					<dim>1</dim>
					<dim>1</dim>
				</port>
			</input>
			<output>
				<port id="2" precision="FP16" names="Add_2">
					<dim>1</dim>
					<dim>44</dim>
					<dim>104</dim>
					<dim>104</dim>
				</port>
			</output>
		</layer>
		<layer id="36" name="Clip_2" type="Clamp" version="opset1">
			<data min="0" max="6"/>
			<input>
				<port id="0" precision="FP16">
					<dim>1</dim>
					<dim>44</dim>
					<dim>104</dim>
					<dim>104</dim>
				</port>
			</input>
			<output>
				<port id="1" precision="FP16" names="Clip_2">
					<dim>1</dim>
					<dim>44</dim>
					<dim>104</dim>
					<dim>104</dim>
				</port>
			</output>
		</layer>
		<layer id="37" name="Mul_2" type="Multiply" version="opset1">
			<data auto_broadcast="numpy"/>
			<input>
				<port id="0" precision="FP16">
					<dim>1</dim>
					<dim>44</dim>
					<dim>104</dim>
					<dim>104</dim>
				</port>
				<port id="1" precision="FP16">
					<dim>1</dim>
					<dim>44</dim>
					<dim>104</dim>
					<dim>104</dim>
				</port>
			</input>
			<output>
				<port id="2" precision="FP16" names="batch_norm_3.tmp_4">
					<dim>1</dim>
					<dim>44</dim>
					<dim>104</dim>
					<dim>104</dim>
				</port>
			</output>
		</layer>
		<layer id="38" name="Div_2_copy" type="Const" version="opset1">
			<data element_type="f16" shape="44, 1, 1, 3, 3" offset="6440" size="792"/>
			<output>
				<port id="0" precision="FP16" names="3799">
					<dim>44</dim>
					<dim>1</dim>
					<dim>1</dim>
					<dim>3</dim>
					<dim>3</dim>
				</port>
			</output>
		</layer>
		<layer id="39" name="Conv_4/WithoutBiases" type="GroupConvolution" version="opset1">
			<data strides="2, 2" pads_begin="1, 1" pads_end="1, 1" dilations="1, 1" auto_pad="explicit"/>
			<input>
				<port id="0" precision="FP16">
					<dim>1</dim>
					<dim>44</dim>
					<dim>104</dim>
					<dim>104</dim>
				</port>
				<port id="1" precision="FP16">
					<dim>44</dim>
					<dim>1</dim>
					<dim>1</dim>
					<dim>3</dim>
					<dim>3</dim>
				</port>
			</input>
			<output>
				<port id="2" precision="FP16">
					<dim>1</dim>
					<dim>44</dim>
					<dim>52</dim>
					<dim>52</dim>
				</port>
			</output>
		</layer>
		<layer id="40" name="Conv_4/Dims13211" type="Const" version="opset1">
			<data element_type="f16" shape="1, 44, 1, 1" offset="7232" size="88"/>
			<output>
				<port id="0" precision="FP16">
					<dim>1</dim>
					<dim>44</dim>
					<dim>1</dim>
					<dim>1</dim>
				</port>
			</output>
		</layer>
		<layer id="41" name="Conv_4" type="Add" version="opset1">
			<data auto_broadcast="numpy"/>
			<input>
				<port id="0" precision="FP16">
					<dim>1</dim>
					<dim>44</dim>
					<dim>52</dim>
					<dim>52</dim>
				</port>
				<port id="1" precision="FP16">
					<dim>1</dim>
					<dim>44</dim>
					<dim>1</dim>
					<dim>1</dim>
				</port>
			</input>
			<output>
				<port id="2" precision="FP16" names="depthwise_conv2d_1.tmp_0">
					<dim>1</dim>
					<dim>44</dim>
					<dim>52</dim>
					<dim>52</dim>
				</port>
			</output>
		</layer>
		<layer id="42" name="1017" type="Const" version="opset1">
			<data element_type="i64" shape="" offset="7320" size="8"/>
			<output>
				<port id="0" precision="I64"/>
			</output>
		</layer>
		<layer id="43" name="GlobalAveragePool_0/input_rank/shape_of" type="ShapeOf" version="opset3">
			<data output_type="i64"/>
			<input>
				<port id="0" precision="FP16">
					<dim>1</dim>
					<dim>44</dim>
					<dim>52</dim>
					<dim>52</dim>
				</port>
			</input>
			<output>
				<port id="1" precision="I64">
					<dim>4</dim>
				</port>
			</output>
		</layer>
		<layer id="44" name="GlobalAveragePool_0/input_rank/rank_of" type="ShapeOf" version="opset3">
			<data output_type="i64"/>
			<input>
				<port id="0" precision="I64">
					<dim>4</dim>
				</port>
			</input>
			<output>
				<port id="1" precision="I64">
					<dim>1</dim>
				</port>
			</output>
		</layer>
		<layer id="45" name="GlobalAveragePool_0/input_rank/0d_rank_of/value" type="Const" version="opset1">
			<data element_type="i64" shape="1" offset="7328" size="8"/>
			<output>
				<port id="0" precision="I64">
					<dim>1</dim>
				</port>
			</output>
		</layer>
		<layer id="46" name="GlobalAveragePool_0/input_rank" type="Squeeze" version="opset1">
			<input>
				<port id="0" precision="I64">
					<dim>1</dim>
				</port>
				<port id="1" precision="I64">
					<dim>1</dim>
				</port>
			</input>
			<output>
				<port id="2" precision="I64"/>
			</output>
		</layer>
		<layer id="47" name="1019" type="Const" version="opset1">
			<data element_type="i64" shape="" offset="7336" size="8"/>
			<output>
				<port id="0" precision="I64"/>
			</output>
		</layer>
		<layer id="48" name="GlobalAveragePool_0/global_pooling_reduce_axis" type="Range" version="opset4">
			<data output_type="i64"/>
			<input>
				<port id="0" precision="I64"/>
				<port id="1" precision="I64"/>
				<port id="2" precision="I64"/>
			</input>
			<output>
				<port id="3" precision="I64">
					<dim>2</dim>
				</port>
			</output>
		</layer>
		<layer id="49" name="GlobalAveragePool_0/reduce" type="ReduceMean" version="opset1">
			<data keep_dims="true"/>
			<input>
				<port id="0" precision="FP16">
					<dim>1</dim>
					<dim>44</dim>
					<dim>52</dim>
					<dim>52</dim>
				</port>
				<port id="1" precision="I64">
					<dim>2</dim>
				</port>
			</input>
			<output>
				<port id="2" precision="FP16" names="pool2d_1.tmp_0">
					<dim>1</dim>
					<dim>44</dim>
					<dim>1</dim>
					<dim>1</dim>
				</port>
			</output>
		</layer>
		<layer id="50" name="conv2d_5.w_0" type="Const" version="opset1">
			<data element_type="f16" shape="11, 44, 1, 1" offset="7344" size="968"/>
			<output>
				<port id="0" precision="FP16" names="conv2d_5.w_0">
					<dim>11</dim>
					<dim>44</dim>
					<dim>1</dim>
					<dim>1</dim>
				</port>
			</output>
		</layer>
		<layer id="51" name="Conv_5/WithoutBiases" type="Convolution" version="opset1">
			<data strides="1, 1" dilations="1, 1" pads_begin="0, 0" pads_end="0, 0" auto_pad="explicit"/>
			<input>
				<port id="0" precision="FP16">
					<dim>1</dim>
					<dim>44</dim>
					<dim>1</dim>
					<dim>1</dim>
				</port>
				<port id="1" precision="FP16">
					<dim>11</dim>
					<dim>44</dim>
					<dim>1</dim>
					<dim>1</dim>
				</port>
			</input>
			<output>
				<port id="2" precision="FP16">
					<dim>1</dim>
					<dim>11</dim>
					<dim>1</dim>
					<dim>1</dim>
				</port>
			</output>
		</layer>
		<layer id="52" name="Conv_5/Dims13037" type="Const" version="opset1">
			<data element_type="f16" shape="1, 11, 1, 1" offset="8312" size="22"/>
			<output>
				<port id="0" precision="FP16">
					<dim>1</dim>
					<dim>11</dim>
					<dim>1</dim>
					<dim>1</dim>
				</port>
			</output>
		</layer>
		<layer id="53" name="Conv_5" type="Add" version="opset1">
			<data auto_broadcast="numpy"/>
			<input>
				<port id="0" precision="FP16">
					<dim>1</dim>
					<dim>11</dim>
					<dim>1</dim>
					<dim>1</dim>
				</port>
				<port id="1" precision="FP16">
					<dim>1</dim>
					<dim>11</dim>
					<dim>1</dim>
					<dim>1</dim>
				</port>
			</input>
			<output>
				<port id="2" precision="FP16" names="conv2d_138.tmp_0">
					<dim>1</dim>
					<dim>11</dim>
					<dim>1</dim>
					<dim>1</dim>
				</port>
			</output>
		</layer>
		<layer id="54" name="Relu_0" type="ReLU" version="opset1">
			<input>
				<port id="0" precision="FP16">
					<dim>1</dim>
					<dim>11</dim>
					<dim>1</dim>
					<dim>1</dim>
				</port>
			</input>
			<output>
				<port id="1" precision="FP16" names="relu_0.tmp_0">
					<dim>1</dim>
					<dim>11</dim>
					<dim>1</dim>
					<dim>1</dim>
				</port>
			</output>
		</layer>
		<layer id="55" name="conv2d_6.w_0" type="Const" version="opset1">
			<data element_type="f16" shape="44, 11, 1, 1" offset="8334" size="968"/>
			<output>
				<port id="0" precision="FP16" names="conv2d_6.w_0">
					<dim>44</dim>
					<dim>11</dim>
					<dim>1</dim>
					<dim>1</dim>
				</port>
			</output>
		</layer>
		<layer id="56" name="Conv_6/WithoutBiases" type="Convolution" version="opset1">
			<data strides="1, 1" dilations="1, 1" pads_begin="0, 0" pads_end="0, 0" auto_pad="explicit"/>
			<input>
				<port id="0" precision="FP16">
					<dim>1</dim>
					<dim>11</dim>
					<dim>1</dim>
					<dim>1</dim>
				</port>
				<port id="1" precision="FP16">
					<dim>44</dim>
					<dim>11</dim>
					<dim>1</dim>
					<dim>1</dim>
				</port>
			</input>
			<output>
				<port id="2" precision="FP16">
					<dim>1</dim>
					<dim>44</dim>
					<dim>1</dim>
					<dim>1</dim>
				</port>
			</output>
		</layer>
		<layer id="57" name="Conv_6/Dims12851" type="Const" version="opset1">
			<data element_type="f16" shape="1, 44, 1, 1" offset="9302" size="88"/>
			<output>
				<port id="0" precision="FP16">
					<dim>1</dim>
					<dim>44</dim>
					<dim>1</dim>
					<dim>1</dim>
				</port>
			</output>
		</layer>
		<layer id="58" name="Conv_6" type="Add" version="opset1">
			<data auto_broadcast="numpy"/>
			<input>
				<port id="0" precision="FP16">
					<dim>1</dim>
					<dim>44</dim>
					<dim>1</dim>
					<dim>1</dim>
				</port>
				<port id="1" precision="FP16">
					<dim>1</dim>
					<dim>44</dim>
					<dim>1</dim>
					<dim>1</dim>
				</port>
			</input>
			<output>
				<port id="2" precision="FP16" names="conv2d_139.tmp_0">
					<dim>1</dim>
					<dim>44</dim>
					<dim>1</dim>
					<dim>1</dim>
				</port>
			</output>
		</layer>
		<layer id="59" name="HardSigmoid_0/HardSigmoid__input_port_1/value" type="Const" version="opset1">
			<data element_type="f16" shape="" offset="1358" size="2"/>
			<output>
				<port id="0" precision="FP16"/>
			</output>
		</layer>
		<layer id="60" name="HardSigmoid_0/HardSigmoid__input_port_2/value" type="Const" version="opset1">
			<data element_type="f16" shape="" offset="9390" size="2"/>
			<output>
				<port id="0" precision="FP16"/>
			</output>
		</layer>
		<layer id="61" name="HardSigmoid_0/HardSigmoid_" type="HardSigmoid" version="opset1">
			<input>
				<port id="0" precision="FP16">
					<dim>1</dim>
					<dim>44</dim>
					<dim>1</dim>
					<dim>1</dim>
				</port>
				<port id="1" precision="FP16"/>
				<port id="2" precision="FP16"/>
			</input>
			<output>
				<port id="3" precision="FP16" names="hardsigmoid_0.tmp_0">
					<dim>1</dim>
					<dim>44</dim>
					<dim>1</dim>
					<dim>1</dim>
				</port>
			</output>
		</layer>
		<layer id="62" name="Mul_3" type="Multiply" version="opset1">
			<data auto_broadcast="numpy"/>
			<input>
				<port id="0" precision="FP16">
					<dim>1</dim>
					<dim>44</dim>
					<dim>52</dim>
					<dim>52</dim>
				</port>
				<port id="1" precision="FP16">
					<dim>1</dim>
					<dim>44</dim>
					<dim>1</dim>
					<dim>1</dim>
				</port>
			</input>
			<output>
				<port id="2" precision="FP16" names="elementwise_mul_0">
					<dim>1</dim>
					<dim>44</dim>
					<dim>52</dim>
					<dim>52</dim>
				</port>
			</output>
		</layer>
		<layer id="63" name="3803" type="Const" version="opset1">
			<data element_type="f16" shape="48, 44, 1, 1" offset="9392" size="4224"/>
			<output>
				<port id="0" precision="FP16" names="3803">
					<dim>48</dim>
					<dim>44</dim>
					<dim>1</dim>
					<dim>1</dim>
				</port>
			</output>
		</layer>
		<layer id="64" name="Conv_7/WithoutBiases" type="Convolution" version="opset1">
			<data strides="1, 1" dilations="1, 1" pads_begin="0, 0" pads_end="0, 0" auto_pad="explicit"/>
			<input>
				<port id="0" precision="FP16">
					<dim>1</dim>
					<dim>44</dim>
					<dim>52</dim>
					<dim>52</dim>
				</port>
				<port id="1" precision="FP16">
					<dim>48</dim>
					<dim>44</dim>
					<dim>1</dim>
					<dim>1</dim>
				</port>
			</input>
			<output>
				<port id="2" precision="FP16">
					<dim>1</dim>
					<dim>48</dim>
					<dim>52</dim>
					<dim>52</dim>
				</port>
			</output>
		</layer>
		<layer id="65" name="Conv_7/Dims12893" type="Const" version="opset1">
			<data element_type="f16" shape="1, 48, 1, 1" offset="13616" size="96"/>
			<output>
				<port id="0" precision="FP16">
					<dim>1</dim>
					<dim>48</dim>
					<dim>1</dim>
					<dim>1</dim>
				</port>
			</output>
		</layer>
		<layer id="66" name="Conv_7" type="Add" version="opset1">
			<data auto_broadcast="numpy"/>
			<input>
				<port id="0" precision="FP16">
					<dim>1</dim>
					<dim>48</dim>
					<dim>52</dim>
					<dim>52</dim>
				</port>
				<port id="1" precision="FP16">
					<dim>1</dim>
					<dim>48</dim>
					<dim>1</dim>
					<dim>1</dim>
				</port>
			</input>
			<output>
				<port id="2" precision="FP16" names="conv2d_140.tmp_0">
					<dim>1</dim>
					<dim>48</dim>
					<dim>52</dim>
					<dim>52</dim>
				</port>
			</output>
		</layer>
		<layer id="67" name="Constant_154239" type="Const" version="opset1">
			<data element_type="f16" shape="1, 1, 1, 1" offset="1356" size="2"/>
			<output>
				<port id="0" precision="FP16" names="Constant_1">
					<dim>1</dim>
					<dim>1</dim>
					<dim>1</dim>
					<dim>1</dim>
				</port>
			</output>
		</layer>
		<layer id="68" name="Add_5" type="Add" version="opset1">
			<data auto_broadcast="numpy"/>
			<input>
				<port id="0" precision="FP16">
					<dim>1</dim>
					<dim>48</dim>
					<dim>52</dim>
					<dim>52</dim>
				</port>
				<port id="1" precision="FP16">
					<dim>1</dim>
					<dim>1</dim>
					<dim>1</dim>
					<dim>1</dim>
				</port>
			</input>
			<output>
				<port id="2" precision="FP16" names="Add_5">
					<dim>1</dim>
					<dim>48</dim>
					<dim>52</dim>
					<dim>52</dim>
				</port>
			</output>
		</layer>
		<layer id="69" name="Clip_3" type="Clamp" version="opset1">
			<data min="0" max="6"/>
			<input>
				<port id="0" precision="FP16">
					<dim>1</dim>
					<dim>48</dim>
					<dim>52</dim>
					<dim>52</dim>
				</port>
			</input>
			<output>
				<port id="1" precision="FP16" names="Clip_3">
					<dim>1</dim>
					<dim>48</dim>
					<dim>52</dim>
					<dim>52</dim>
				</port>
			</output>
		</layer>
		<layer id="70" name="Mul_4" type="Multiply" version="opset1">
			<data auto_broadcast="numpy"/>
			<input>
				<port id="0" precision="FP16">
					<dim>1</dim>
					<dim>48</dim>
					<dim>52</dim>
					<dim>52</dim>
				</port>
				<port id="1" precision="FP16">
					<dim>1</dim>
					<dim>48</dim>
					<dim>52</dim>
					<dim>52</dim>
				</port>
			</input>
			<output>
				<port id="2" precision="FP16" names="Mul_4">
					<dim>1</dim>
					<dim>48</dim>
					<dim>52</dim>
					<dim>52</dim>
				</port>
			</output>
		</layer>
		<layer id="71" name="Constant_054383" type="Const" version="opset1">
			<data element_type="f16" shape="1, 1, 1, 1" offset="1358" size="2"/>
			<output>
				<port id="0" precision="FP16" names="Constant_0">
					<dim>1</dim>
					<dim>1</dim>
					<dim>1</dim>
					<dim>1</dim>
				</port>
			</output>
		</layer>
		<layer id="72" name="Div_3" type="Multiply" version="opset1">
			<data auto_broadcast="numpy"/>
			<input>
				<port id="0" precision="FP16">
					<dim>1</dim>
					<dim>48</dim>
					<dim>52</dim>
					<dim>52</dim>
				</port>
				<port id="1" precision="FP16">
					<dim>1</dim>
					<dim>1</dim>
					<dim>1</dim>
					<dim>1</dim>
				</port>
			</input>
			<output>
				<port id="2" precision="FP16" names="batch_norm_5.tmp_4">
					<dim>1</dim>
					<dim>48</dim>
					<dim>52</dim>
					<dim>52</dim>
				</port>
			</output>
		</layer>
		<layer id="73" name="Concat_0" type="Concat" version="opset1">
			<data axis="1"/>
			<input>
				<port id="0" precision="FP16">
					<dim>1</dim>
					<dim>48</dim>
					<dim>52</dim>
					<dim>52</dim>
				</port>
				<port id="1" precision="FP16">
					<dim>1</dim>
					<dim>48</dim>
					<dim>52</dim>
					<dim>52</dim>
				</port>
			</input>
			<output>
				<port id="2" precision="FP16" names="concat_0.tmp_0">
					<dim>1</dim>
					<dim>96</dim>
					<dim>52</dim>
					<dim>52</dim>
				</port>
			</output>
		</layer>
		<layer id="74" name="3807" type="Const" version="opset1">
			<data element_type="f16" shape="96, 1, 1, 3, 3" offset="13712" size="1728"/>
			<output>
				<port id="0" precision="FP16" names="3807">
					<dim>96</dim>
					<dim>1</dim>
					<dim>1</dim>
					<dim>3</dim>
					<dim>3</dim>
				</port>
			</output>
		</layer>
		<layer id="75" name="Conv_8/WithoutBiases" type="GroupConvolution" version="opset1">
			<data strides="1, 1" pads_begin="1, 1" pads_end="1, 1" dilations="1, 1" auto_pad="explicit"/>
			<input>
				<port id="0" precision="FP16">
					<dim>1</dim>
					<dim>96</dim>
					<dim>52</dim>
					<dim>52</dim>
				</port>
				<port id="1" precision="FP16">
					<dim>96</dim>
					<dim>1</dim>
					<dim>1</dim>
					<dim>3</dim>
					<dim>3</dim>
				</port>
			</input>
			<output>
				<port id="2" precision="FP16">
					<dim>1</dim>
					<dim>96</dim>
					<dim>52</dim>
					<dim>52</dim>
				</port>
			</output>
		</layer>
		<layer id="76" name="Conv_8/Dims13001" type="Const" version="opset1">
			<data element_type="f16" shape="1, 96, 1, 1" offset="15440" size="192"/>
			<output>
				<port id="0" precision="FP16">
					<dim>1</dim>
					<dim>96</dim>
					<dim>1</dim>
					<dim>1</dim>
				</port>
			</output>
		</layer>
		<layer id="77" name="Conv_8" type="Add" version="opset1">
			<data auto_broadcast="numpy"/>
			<input>
				<port id="0" precision="FP16">
					<dim>1</dim>
					<dim>96</dim>
					<dim>52</dim>
					<dim>52</dim>
				</port>
				<port id="1" precision="FP16">
					<dim>1</dim>
					<dim>96</dim>
					<dim>1</dim>
					<dim>1</dim>
				</port>
			</input>
			<output>
				<port id="2" precision="FP16" names="depthwise_conv2d_2.tmp_0">
					<dim>1</dim>
					<dim>96</dim>
					<dim>52</dim>
					<dim>52</dim>
				</port>
			</output>
		</layer>
		<layer id="78" name="Constant_153657" type="Const" version="opset1">
			<data element_type="f16" shape="1, 1, 1, 1" offset="1356" size="2"/>
			<output>
				<port id="0" precision="FP16" names="Constant_1">
					<dim>1</dim>
					<dim>1</dim>
					<dim>1</dim>
					<dim>1</dim>
				</port>
			</output>
		</layer>
		<layer id="79" name="Add_6" type="Add" version="opset1">
			<data auto_broadcast="numpy"/>
			<input>
				<port id="0" precision="FP16">
					<dim>1</dim>
					<dim>96</dim>
					<dim>52</dim>
					<dim>52</dim>
				</port>
				<port id="1" precision="FP16">
					<dim>1</dim>
					<dim>1</dim>
					<dim>1</dim>
					<dim>1</dim>
				</port>
			</input>
			<output>
				<port id="2" precision="FP16" names="Add_6">
					<dim>1</dim>
					<dim>96</dim>
					<dim>52</dim>
					<dim>52</dim>
				</port>
			</output>
		</layer>
		<layer id="80" name="Clip_4" type="Clamp" version="opset1">
			<data min="0" max="6"/>
			<input>
				<port id="0" precision="FP16">
					<dim>1</dim>
					<dim>96</dim>
					<dim>52</dim>
					<dim>52</dim>
				</port>
			</input>
			<output>
				<port id="1" precision="FP16" names="Clip_4">
					<dim>1</dim>
					<dim>96</dim>
					<dim>52</dim>
					<dim>52</dim>
				</port>
			</output>
		</layer>
		<layer id="81" name="Mul_5" type="Multiply" version="opset1">
			<data auto_broadcast="numpy"/>
			<input>
				<port id="0" precision="FP16">
					<dim>1</dim>
					<dim>96</dim>
					<dim>52</dim>
					<dim>52</dim>
				</port>
				<port id="1" precision="FP16">
					<dim>1</dim>
					<dim>96</dim>
					<dim>52</dim>
					<dim>52</dim>
				</port>
			</input>
			<output>
				<port id="2" precision="FP16" names="batch_norm_6.tmp_4">
					<dim>1</dim>
					<dim>96</dim>
					<dim>52</dim>
					<dim>52</dim>
				</port>
			</output>
		</layer>
		<layer id="82" name="Div_4_copy" type="Const" version="opset1">
			<data element_type="f16" shape="96, 96, 1, 1" offset="15632" size="18432"/>
			<output>
				<port id="0" precision="FP16" names="3811">
					<dim>96</dim>
					<dim>96</dim>
					<dim>1</dim>
					<dim>1</dim>
				</port>
			</output>
		</layer>
		<layer id="83" name="Conv_9/WithoutBiases" type="Convolution" version="opset1">
			<data strides="1, 1" dilations="1, 1" pads_begin="0, 0" pads_end="0, 0" auto_pad="explicit"/>
			<input>
				<port id="0" precision="FP16">
					<dim>1</dim>
					<dim>96</dim>
					<dim>52</dim>
					<dim>52</dim>
				</port>
				<port id="1" precision="FP16">
					<dim>96</dim>
					<dim>96</dim>
					<dim>1</dim>
					<dim>1</dim>
				</port>
			</input>
			<output>
				<port id="2" precision="FP16">
					<dim>1</dim>
					<dim>96</dim>
					<dim>52</dim>
					<dim>52</dim>
				</port>
			</output>
		</layer>
		<layer id="84" name="Conv_9/Dims13163" type="Const" version="opset1">
			<data element_type="f16" shape="1, 96, 1, 1" offset="34064" size="192"/>
			<output>
				<port id="0" precision="FP16">
					<dim>1</dim>
					<dim>96</dim>
					<dim>1</dim>
					<dim>1</dim>
				</port>
			</output>
		</layer>
		<layer id="85" name="Conv_9" type="Add" version="opset1">
			<data auto_broadcast="numpy"/>
			<input>
				<port id="0" precision="FP16">
					<dim>1</dim>
					<dim>96</dim>
					<dim>52</dim>
					<dim>52</dim>
				</port>
				<port id="1" precision="FP16">
					<dim>1</dim>
					<dim>96</dim>
					<dim>1</dim>
					<dim>1</dim>
				</port>
			</input>
			<output>
				<port id="2" precision="FP16" names="conv2d_141.tmp_0">
					<dim>1</dim>
					<dim>96</dim>
					<dim>52</dim>
					<dim>52</dim>
				</port>
			</output>
		</layer>
		<layer id="86" name="Constant_153165" type="Const" version="opset1">
			<data element_type="f16" shape="1, 1, 1, 1" offset="1356" size="2"/>
			<output>
				<port id="0" precision="FP16" names="Constant_1">
					<dim>1</dim>
					<dim>1</dim>
					<dim>1</dim>
					<dim>1</dim>
				</port>
			</output>
		</layer>
		<layer id="87" name="Add_7" type="Add" version="opset1">
			<data auto_broadcast="numpy"/>
			<input>
				<port id="0" precision="FP16">
					<dim>1</dim>
					<dim>96</dim>
					<dim>52</dim>
					<dim>52</dim>
				</port>
				<port id="1" precision="FP16">
					<dim>1</dim>
					<dim>1</dim>
					<dim>1</dim>
					<dim>1</dim>
				</port>
			</input>
			<output>
				<port id="2" precision="FP16" names="Add_7">
					<dim>1</dim>
					<dim>96</dim>
					<dim>52</dim>
					<dim>52</dim>
				</port>
			</output>
		</layer>
		<layer id="88" name="Clip_5" type="Clamp" version="opset1">
			<data min="0" max="6"/>
			<input>
				<port id="0" precision="FP16">
					<dim>1</dim>
					<dim>96</dim>
					<dim>52</dim>
					<dim>52</dim>
				</port>
			</input>
			<output>
				<port id="1" precision="FP16" names="Clip_5">
					<dim>1</dim>
					<dim>96</dim>
					<dim>52</dim>
					<dim>52</dim>
				</port>
			</output>
		</layer>
		<layer id="89" name="Mul_6" type="Multiply" version="opset1">
			<data auto_broadcast="numpy"/>
			<input>
				<port id="0" precision="FP16">
					<dim>1</dim>
					<dim>96</dim>
					<dim>52</dim>
					<dim>52</dim>
				</port>
				<port id="1" precision="FP16">
					<dim>1</dim>
					<dim>96</dim>
					<dim>52</dim>
					<dim>52</dim>
				</port>
			</input>
			<output>
				<port id="2" precision="FP16" names="Mul_6">
					<dim>1</dim>
					<dim>96</dim>
					<dim>52</dim>
					<dim>52</dim>
				</port>
			</output>
		</layer>
		<layer id="90" name="Constant_054395" type="Const" version="opset1">
			<data element_type="f16" shape="1, 1, 1, 1" offset="1358" size="2"/>
			<output>
				<port id="0" precision="FP16" names="Constant_0">
					<dim>1</dim>
					<dim>1</dim>
					<dim>1</dim>
					<dim>1</dim>
				</port>
			</output>
		</layer>
		<layer id="91" name="Div_5" type="Multiply" version="opset1">
			<data auto_broadcast="numpy"/>
			<input>
				<port id="0" precision="FP16">
					<dim>1</dim>
					<dim>96</dim>
					<dim>52</dim>
					<dim>52</dim>
				</port>
				<port id="1" precision="FP16">
					<dim>1</dim>
					<dim>1</dim>
					<dim>1</dim>
					<dim>1</dim>
				</port>
			</input>
			<output>
				<port id="2" precision="FP16" names="batch_norm_7.tmp_4">
					<dim>1</dim>
					<dim>96</dim>
					<dim>52</dim>
					<dim>52</dim>
				</port>
			</output>
		</layer>
		<layer id="92" name="Split_0/VariadicSplit_input_port_1/value" type="Const" version="opset1">
			<data element_type="i64" shape="" offset="7336" size="8"/>
			<output>
				<port id="0" precision="I64"/>
			</output>
		</layer>
		<layer id="93" name="Split_0/VariadicSplit_input_port_2/value" type="Const" version="opset1">
			<data element_type="i64" shape="2" offset="34256" size="16"/>
			<output>
				<port id="0" precision="I64">
					<dim>2</dim>
				</port>
			</output>
		</layer>
		<layer id="94" name="Split_0/VariadicSplit" type="VariadicSplit" version="opset1">
			<input>
				<port id="0" precision="FP16">
					<dim>1</dim>
					<dim>96</dim>
					<dim>52</dim>
					<dim>52</dim>
				</port>
				<port id="1" precision="I64"/>
				<port id="2" precision="I64">
					<dim>2</dim>
				</port>
			</input>
			<output>
				<port id="3" precision="FP16" names="split_0.tmp_0">
					<dim>1</dim>
					<dim>48</dim>
					<dim>52</dim>
					<dim>52</dim>
				</port>
				<port id="4" precision="FP16" names="split_0.tmp_1">
					<dim>1</dim>
					<dim>48</dim>
					<dim>52</dim>
					<dim>52</dim>
				</port>
			</output>
		</layer>
		<layer id="95" name="3815" type="Const" version="opset1">
			<data element_type="f16" shape="24, 48, 1, 1" offset="34272" size="2304"/>
			<output>
				<port id="0" precision="FP16" names="3815">
					<dim>24</dim>
					<dim>48</dim>
					<dim>1</dim>
					<dim>1</dim>
				</port>
			</output>
		</layer>
		<layer id="96" name="Conv_10/WithoutBiases" type="Convolution" version="opset1">
			<data strides="1, 1" dilations="1, 1" pads_begin="0, 0" pads_end="0, 0" auto_pad="explicit"/>
			<input>
				<port id="0" precision="FP16">
					<dim>1</dim>
					<dim>48</dim>
					<dim>52</dim>
					<dim>52</dim>
				</port>
				<port id="1" precision="FP16">
					<dim>24</dim>
					<dim>48</dim>
					<dim>1</dim>
					<dim>1</dim>
				</port>
			</input>
			<output>
				<port id="2" precision="FP16">
					<dim>1</dim>
					<dim>24</dim>
					<dim>52</dim>
					<dim>52</dim>
				</port>
			</output>
		</layer>
		<layer id="97" name="Conv_10/Dims12791" type="Const" version="opset1">
			<data element_type="f16" shape="1, 24, 1, 1" offset="36576" size="48"/>
			<output>
				<port id="0" precision="FP16">
					<dim>1</dim>
					<dim>24</dim>
					<dim>1</dim>
					<dim>1</dim>
				</port>
			</output>
		</layer>
		<layer id="98" name="Conv_10" type="Add" version="opset1">
			<data auto_broadcast="numpy"/>
			<input>
				<port id="0" precision="FP16">
					<dim>1</dim>
					<dim>24</dim>
					<dim>52</dim>
					<dim>52</dim>
				</port>
				<port id="1" precision="FP16">
					<dim>1</dim>
					<dim>24</dim>
					<dim>1</dim>
					<dim>1</dim>
				</port>
			</input>
			<output>
				<port id="2" precision="FP16" names="conv2d_142.tmp_0">
					<dim>1</dim>
					<dim>24</dim>
					<dim>52</dim>
					<dim>52</dim>
				</port>
			</output>
		</layer>
		<layer id="99" name="Constant_153876" type="Const" version="opset1">
			<data element_type="f16" shape="1, 1, 1, 1" offset="1356" size="2"/>
			<output>
				<port id="0" precision="FP16" names="Constant_1">
					<dim>1</dim>
					<dim>1</dim>
					<dim>1</dim>
					<dim>1</dim>
				</port>
			</output>
		</layer>
		<layer id="100" name="Add_8" type="Add" version="opset1">
			<data auto_broadcast="numpy"/>
			<input>
				<port id="0" precision="FP16">
					<dim>1</dim>
					<dim>24</dim>
					<dim>52</dim>
					<dim>52</dim>
				</port>
				<port id="1" precision="FP16">
					<dim>1</dim>
					<dim>1</dim>
					<dim>1</dim>
					<dim>1</dim>
				</port>
			</input>
			<output>
				<port id="2" precision="FP16" names="Add_8">
					<dim>1</dim>
					<dim>24</dim>
					<dim>52</dim>
					<dim>52</dim>
				</port>
			</output>
		</layer>
		<layer id="101" name="Clip_6" type="Clamp" version="opset1">
			<data min="0" max="6"/>
			<input>
				<port id="0" precision="FP16">
					<dim>1</dim>
					<dim>24</dim>
					<dim>52</dim>
					<dim>52</dim>
				</port>
			</input>
			<output>
				<port id="1" precision="FP16" names="Clip_6">
					<dim>1</dim>
					<dim>24</dim>
					<dim>52</dim>
					<dim>52</dim>
				</port>
			</output>
		</layer>
		<layer id="102" name="Mul_7" type="Multiply" version="opset1">
			<data auto_broadcast="numpy"/>
			<input>
				<port id="0" precision="FP16">
					<dim>1</dim>
					<dim>24</dim>
					<dim>52</dim>
					<dim>52</dim>
				</port>
				<port id="1" precision="FP16">
					<dim>1</dim>
					<dim>24</dim>
					<dim>52</dim>
					<dim>52</dim>
				</port>
			</input>
			<output>
				<port id="2" precision="FP16" names="Mul_7">
					<dim>1</dim>
					<dim>24</dim>
					<dim>52</dim>
					<dim>52</dim>
				</port>
			</output>
		</layer>
		<layer id="103" name="Constant_054110" type="Const" version="opset1">
			<data element_type="f16" shape="1, 1, 1, 1" offset="1358" size="2"/>
			<output>
				<port id="0" precision="FP16" names="Constant_0">
					<dim>1</dim>
					<dim>1</dim>
					<dim>1</dim>
					<dim>1</dim>
				</port>
			</output>
		</layer>
		<layer id="104" name="Div_6" type="Multiply" version="opset1">
			<data auto_broadcast="numpy"/>
			<input>
				<port id="0" precision="FP16">
					<dim>1</dim>
					<dim>24</dim>
					<dim>52</dim>
					<dim>52</dim>
				</port>
				<port id="1" precision="FP16">
					<dim>1</dim>
					<dim>1</dim>
					<dim>1</dim>
					<dim>1</dim>
				</port>
			</input>
			<output>
				<port id="2" precision="FP16" names="batch_norm_8.tmp_4">
					<dim>1</dim>
					<dim>24</dim>
					<dim>52</dim>
					<dim>52</dim>
				</port>
			</output>
		</layer>
		<layer id="105" name="3819" type="Const" version="opset1">
			<data element_type="f16" shape="24, 1, 1, 3, 3" offset="36624" size="432"/>
			<output>
				<port id="0" precision="FP16" names="3819">
					<dim>24</dim>
					<dim>1</dim>
					<dim>1</dim>
					<dim>3</dim>
					<dim>3</dim>
				</port>
			</output>
		</layer>
		<layer id="106" name="Conv_11/WithoutBiases" type="GroupConvolution" version="opset1">
			<data strides="1, 1" pads_begin="1, 1" pads_end="1, 1" dilations="1, 1" auto_pad="explicit"/>
			<input>
				<port id="0" precision="FP16">
					<dim>1</dim>
					<dim>24</dim>
					<dim>52</dim>
					<dim>52</dim>
				</port>
				<port id="1" precision="FP16">
					<dim>24</dim>
					<dim>1</dim>
					<dim>1</dim>
					<dim>3</dim>
					<dim>3</dim>
				</port>
			</input>
			<output>
				<port id="2" precision="FP16">
					<dim>1</dim>
					<dim>24</dim>
					<dim>52</dim>
					<dim>52</dim>
				</port>
			</output>
		</layer>
		<layer id="107" name="Conv_11/Dims13439" type="Const" version="opset1">
			<data element_type="f16" shape="1, 24, 1, 1" offset="37056" size="48"/>
			<output>
				<port id="0" precision="FP16">
					<dim>1</dim>
					<dim>24</dim>
					<dim>1</dim>
					<dim>1</dim>
				</port>
			</output>
		</layer>
		<layer id="108" name="Conv_11" type="Add" version="opset1">
			<data auto_broadcast="numpy"/>
			<input>
				<port id="0" precision="FP16">
					<dim>1</dim>
					<dim>24</dim>
					<dim>52</dim>
					<dim>52</dim>
				</port>
				<port id="1" precision="FP16">
					<dim>1</dim>
					<dim>24</dim>
					<dim>1</dim>
					<dim>1</dim>
				</port>
			</input>
			<output>
				<port id="2" precision="FP16" names="depthwise_conv2d_3.tmp_0">
					<dim>1</dim>
					<dim>24</dim>
					<dim>52</dim>
					<dim>52</dim>
				</port>
			</output>
		</layer>
		<layer id="109" name="Concat_1" type="Concat" version="opset1">
			<data axis="1"/>
			<input>
				<port id="0" precision="FP16">
					<dim>1</dim>
					<dim>24</dim>
					<dim>52</dim>
					<dim>52</dim>
				</port>
				<port id="1" precision="FP16">
					<dim>1</dim>
					<dim>24</dim>
					<dim>52</dim>
					<dim>52</dim>
				</port>
			</input>
			<output>
				<port id="2" precision="FP16" names="concat_1.tmp_0">
					<dim>1</dim>
					<dim>48</dim>
					<dim>52</dim>
					<dim>52</dim>
				</port>
			</output>
		</layer>
		<layer id="110" name="1022" type="Const" version="opset1">
			<data element_type="i64" shape="" offset="7320" size="8"/>
			<output>
				<port id="0" precision="I64"/>
			</output>
		</layer>
		<layer id="111" name="GlobalAveragePool_1/input_rank/shape_of" type="ShapeOf" version="opset3">
			<data output_type="i64"/>
			<input>
				<port id="0" precision="FP16">
					<dim>1</dim>
					<dim>48</dim>
					<dim>52</dim>
					<dim>52</dim>
				</port>
			</input>
			<output>
				<port id="1" precision="I64">
					<dim>4</dim>
				</port>
			</output>
		</layer>
		<layer id="112" name="GlobalAveragePool_1/input_rank/rank_of" type="ShapeOf" version="opset3">
			<data output_type="i64"/>
			<input>
				<port id="0" precision="I64">
					<dim>4</dim>
				</port>
			</input>
			<output>
				<port id="1" precision="I64">
					<dim>1</dim>
				</port>
			</output>
		</layer>
		<layer id="113" name="GlobalAveragePool_1/input_rank/0d_rank_of/value" type="Const" version="opset1">
			<data element_type="i64" shape="1" offset="7328" size="8"/>
			<output>
				<port id="0" precision="I64">
					<dim>1</dim>
				</port>
			</output>
		</layer>
		<layer id="114" name="GlobalAveragePool_1/input_rank" type="Squeeze" version="opset1">
			<input>
				<port id="0" precision="I64">
					<dim>1</dim>
				</port>
				<port id="1" precision="I64">
					<dim>1</dim>
				</port>
			</input>
			<output>
				<port id="2" precision="I64"/>
			</output>
		</layer>
		<layer id="115" name="1024" type="Const" version="opset1">
			<data element_type="i64" shape="" offset="7336" size="8"/>
			<output>
				<port id="0" precision="I64"/>
			</output>
		</layer>
		<layer id="116" name="GlobalAveragePool_1/global_pooling_reduce_axis" type="Range" version="opset4">
			<data output_type="i64"/>
			<input>
				<port id="0" precision="I64"/>
				<port id="1" precision="I64"/>
				<port id="2" precision="I64"/>
			</input>
			<output>
				<port id="3" precision="I64">
					<dim>2</dim>
				</port>
			</output>
		</layer>
		<layer id="117" name="GlobalAveragePool_1/reduce" type="ReduceMean" version="opset1">
			<data keep_dims="true"/>
			<input>
				<port id="0" precision="FP16">
					<dim>1</dim>
					<dim>48</dim>
					<dim>52</dim>
					<dim>52</dim>
				</port>
				<port id="1" precision="I64">
					<dim>2</dim>
				</port>
			</input>
			<output>
				<port id="2" precision="FP16" names="pool2d_2.tmp_0">
					<dim>1</dim>
					<dim>48</dim>
					<dim>1</dim>
					<dim>1</dim>
				</port>
			</output>
		</layer>
		<layer id="118" name="conv2d_12.w_0" type="Const" version="opset1">
			<data element_type="f16" shape="12, 48, 1, 1" offset="37104" size="1152"/>
			<output>
				<port id="0" precision="FP16" names="conv2d_12.w_0">
					<dim>12</dim>
					<dim>48</dim>
					<dim>1</dim>
					<dim>1</dim>
				</port>
			</output>
		</layer>
		<layer id="119" name="Conv_12/WithoutBiases" type="Convolution" version="opset1">
			<data strides="1, 1" dilations="1, 1" pads_begin="0, 0" pads_end="0, 0" auto_pad="explicit"/>
			<input>
				<port id="0" precision="FP16">
					<dim>1</dim>
					<dim>48</dim>
					<dim>1</dim>
					<dim>1</dim>
				</port>
				<port id="1" precision="FP16">
					<dim>12</dim>
					<dim>48</dim>
					<dim>1</dim>
					<dim>1</dim>
				</port>
			</input>
			<output>
				<port id="2" precision="FP16">
					<dim>1</dim>
					<dim>12</dim>
					<dim>1</dim>
					<dim>1</dim>
				</port>
			</output>
		</layer>
		<layer id="120" name="Conv_12/Dims13283" type="Const" version="opset1">
			<data element_type="f16" shape="1, 12, 1, 1" offset="38256" size="24"/>
			<output>
				<port id="0" precision="FP16">
					<dim>1</dim>
					<dim>12</dim>
					<dim>1</dim>
					<dim>1</dim>
				</port>
			</output>
		</layer>
		<layer id="121" name="Conv_12" type="Add" version="opset1">
			<data auto_broadcast="numpy"/>
			<input>
				<port id="0" precision="FP16">
					<dim>1</dim>
					<dim>12</dim>
					<dim>1</dim>
					<dim>1</dim>
				</port>
				<port id="1" precision="FP16">
					<dim>1</dim>
					<dim>12</dim>
					<dim>1</dim>
					<dim>1</dim>
				</port>
			</input>
			<output>
				<port id="2" precision="FP16" names="conv2d_143.tmp_0">
					<dim>1</dim>
					<dim>12</dim>
					<dim>1</dim>
					<dim>1</dim>
				</port>
			</output>
		</layer>
		<layer id="122" name="Relu_1" type="ReLU" version="opset1">
			<input>
				<port id="0" precision="FP16">
					<dim>1</dim>
					<dim>12</dim>
					<dim>1</dim>
					<dim>1</dim>
				</port>
			</input>
			<output>
				<port id="1" precision="FP16" names="relu_1.tmp_0">
					<dim>1</dim>
					<dim>12</dim>
					<dim>1</dim>
					<dim>1</dim>
				</port>
			</output>
		</layer>
		<layer id="123" name="conv2d_13.w_0" type="Const" version="opset1">
			<data element_type="f16" shape="48, 12, 1, 1" offset="38280" size="1152"/>
			<output>
				<port id="0" precision="FP16" names="conv2d_13.w_0">
					<dim>48</dim>
					<dim>12</dim>
					<dim>1</dim>
					<dim>1</dim>
				</port>
			</output>
		</layer>
		<layer id="124" name="Conv_13/WithoutBiases" type="Convolution" version="opset1">
			<data strides="1, 1" dilations="1, 1" pads_begin="0, 0" pads_end="0, 0" auto_pad="explicit"/>
			<input>
				<port id="0" precision="FP16">
					<dim>1</dim>
					<dim>12</dim>
					<dim>1</dim>
					<dim>1</dim>
				</port>
				<port id="1" precision="FP16">
					<dim>48</dim>
					<dim>12</dim>
					<dim>1</dim>
					<dim>1</dim>
				</port>
			</input>
			<output>
				<port id="2" precision="FP16">
					<dim>1</dim>
					<dim>48</dim>
					<dim>1</dim>
					<dim>1</dim>
				</port>
			</output>
		</layer>
		<layer id="125" name="Conv_13/Dims12977" type="Const" version="opset1">
			<data element_type="f16" shape="1, 48, 1, 1" offset="39432" size="96"/>
			<output>
				<port id="0" precision="FP16">
					<dim>1</dim>
					<dim>48</dim>
					<dim>1</dim>
					<dim>1</dim>
				</port>
			</output>
		</layer>
		<layer id="126" name="Conv_13" type="Add" version="opset1">
			<data auto_broadcast="numpy"/>
			<input>
				<port id="0" precision="FP16">
					<dim>1</dim>
					<dim>48</dim>
					<dim>1</dim>
					<dim>1</dim>
				</port>
				<port id="1" precision="FP16">
					<dim>1</dim>
					<dim>48</dim>
					<dim>1</dim>
					<dim>1</dim>
				</port>
			</input>
			<output>
				<port id="2" precision="FP16" names="conv2d_144.tmp_0">
					<dim>1</dim>
					<dim>48</dim>
					<dim>1</dim>
					<dim>1</dim>
				</port>
			</output>
		</layer>
		<layer id="127" name="HardSigmoid_1/HardSigmoid__input_port_1/value" type="Const" version="opset1">
			<data element_type="f16" shape="" offset="1358" size="2"/>
			<output>
				<port id="0" precision="FP16"/>
			</output>
		</layer>
		<layer id="128" name="HardSigmoid_1/HardSigmoid__input_port_2/value" type="Const" version="opset1">
			<data element_type="f16" shape="" offset="9390" size="2"/>
			<output>
				<port id="0" precision="FP16"/>
			</output>
		</layer>
		<layer id="129" name="HardSigmoid_1/HardSigmoid_" type="HardSigmoid" version="opset1">
			<input>
				<port id="0" precision="FP16">
					<dim>1</dim>
					<dim>48</dim>
					<dim>1</dim>
					<dim>1</dim>
				</port>
				<port id="1" precision="FP16"/>
				<port id="2" precision="FP16"/>
			</input>
			<output>
				<port id="3" precision="FP16" names="hardsigmoid_1.tmp_0">
					<dim>1</dim>
					<dim>48</dim>
					<dim>1</dim>
					<dim>1</dim>
				</port>
			</output>
		</layer>
		<layer id="130" name="Mul_8" type="Multiply" version="opset1">
			<data auto_broadcast="numpy"/>
			<input>
				<port id="0" precision="FP16">
					<dim>1</dim>
					<dim>48</dim>
					<dim>52</dim>
					<dim>52</dim>
				</port>
				<port id="1" precision="FP16">
					<dim>1</dim>
					<dim>48</dim>
					<dim>1</dim>
					<dim>1</dim>
				</port>
			</input>
			<output>
				<port id="2" precision="FP16" names="elementwise_mul_1">
					<dim>1</dim>
					<dim>48</dim>
					<dim>52</dim>
					<dim>52</dim>
				</port>
			</output>
		</layer>
		<layer id="131" name="3823" type="Const" version="opset1">
			<data element_type="f16" shape="48, 48, 1, 1" offset="39528" size="4608"/>
			<output>
				<port id="0" precision="FP16" names="3823">
					<dim>48</dim>
					<dim>48</dim>
					<dim>1</dim>
					<dim>1</dim>
				</port>
			</output>
		</layer>
		<layer id="132" name="Conv_14/WithoutBiases" type="Convolution" version="opset1">
			<data strides="1, 1" dilations="1, 1" pads_begin="0, 0" pads_end="0, 0" auto_pad="explicit"/>
			<input>
				<port id="0" precision="FP16">
					<dim>1</dim>
					<dim>48</dim>
					<dim>52</dim>
					<dim>52</dim>
				</port>
				<port id="1" precision="FP16">
					<dim>48</dim>
					<dim>48</dim>
					<dim>1</dim>
					<dim>1</dim>
				</port>
			</input>
			<output>
				<port id="2" precision="FP16">
					<dim>1</dim>
					<dim>48</dim>
					<dim>52</dim>
					<dim>52</dim>
				</port>
			</output>
		</layer>
		<layer id="133" name="Conv_14/Dims13127" type="Const" version="opset1">
			<data element_type="f16" shape="1, 48, 1, 1" offset="44136" size="96"/>
			<output>
				<port id="0" precision="FP16">
					<dim>1</dim>
					<dim>48</dim>
					<dim>1</dim>
					<dim>1</dim>
				</port>
			</output>
		</layer>
		<layer id="134" name="Conv_14" type="Add" version="opset1">
			<data auto_broadcast="numpy"/>
			<input>
				<port id="0" precision="FP16">
					<dim>1</dim>
					<dim>48</dim>
					<dim>52</dim>
					<dim>52</dim>
				</port>
				<port id="1" precision="FP16">
					<dim>1</dim>
					<dim>48</dim>
					<dim>1</dim>
					<dim>1</dim>
				</port>
			</input>
			<output>
				<port id="2" precision="FP16" names="conv2d_145.tmp_0">
					<dim>1</dim>
					<dim>48</dim>
					<dim>52</dim>
					<dim>52</dim>
				</port>
			</output>
		</layer>
		<layer id="135" name="Constant_153336" type="Const" version="opset1">
			<data element_type="f16" shape="1, 1, 1, 1" offset="1356" size="2"/>
			<output>
				<port id="0" precision="FP16" names="Constant_1">
					<dim>1</dim>
					<dim>1</dim>
					<dim>1</dim>
					<dim>1</dim>
				</port>
			</output>
		</layer>
		<layer id="136" name="Add_11" type="Add" version="opset1">
			<data auto_broadcast="numpy"/>
			<input>
				<port id="0" precision="FP16">
					<dim>1</dim>
					<dim>48</dim>
					<dim>52</dim>
					<dim>52</dim>
				</port>
				<port id="1" precision="FP16">
					<dim>1</dim>
					<dim>1</dim>
					<dim>1</dim>
					<dim>1</dim>
				</port>
			</input>
			<output>
				<port id="2" precision="FP16" names="Add_11">
					<dim>1</dim>
					<dim>48</dim>
					<dim>52</dim>
					<dim>52</dim>
				</port>
			</output>
		</layer>
		<layer id="137" name="Clip_7" type="Clamp" version="opset1">
			<data min="0" max="6"/>
			<input>
				<port id="0" precision="FP16">
					<dim>1</dim>
					<dim>48</dim>
					<dim>52</dim>
					<dim>52</dim>
				</port>
			</input>
			<output>
				<port id="1" precision="FP16" names="Clip_7">
					<dim>1</dim>
					<dim>48</dim>
					<dim>52</dim>
					<dim>52</dim>
				</port>
			</output>
		</layer>
		<layer id="138" name="Mul_9" type="Multiply" version="opset1">
			<data auto_broadcast="numpy"/>
			<input>
				<port id="0" precision="FP16">
					<dim>1</dim>
					<dim>48</dim>
					<dim>52</dim>
					<dim>52</dim>
				</port>
				<port id="1" precision="FP16">
					<dim>1</dim>
					<dim>48</dim>
					<dim>52</dim>
					<dim>52</dim>
				</port>
			</input>
			<output>
				<port id="2" precision="FP16" names="Mul_9">
					<dim>1</dim>
					<dim>48</dim>
					<dim>52</dim>
					<dim>52</dim>
				</port>
			</output>
		</layer>
		<layer id="139" name="Constant_054350" type="Const" version="opset1">
			<data element_type="f16" shape="1, 1, 1, 1" offset="1358" size="2"/>
			<output>
				<port id="0" precision="FP16" names="Constant_0">
					<dim>1</dim>
					<dim>1</dim>
					<dim>1</dim>
					<dim>1</dim>
				</port>
			</output>
		</layer>
		<layer id="140" name="Div_7" type="Multiply" version="opset1">
			<data auto_broadcast="numpy"/>
			<input>
				<port id="0" precision="FP16">
					<dim>1</dim>
					<dim>48</dim>
					<dim>52</dim>
					<dim>52</dim>
				</port>
				<port id="1" precision="FP16">
					<dim>1</dim>
					<dim>1</dim>
					<dim>1</dim>
					<dim>1</dim>
				</port>
			</input>
			<output>
				<port id="2" precision="FP16" names="batch_norm_10.tmp_4">
					<dim>1</dim>
					<dim>48</dim>
					<dim>52</dim>
					<dim>52</dim>
				</port>
			</output>
		</layer>
		<layer id="141" name="Concat_2" type="Concat" version="opset1">
			<data axis="1"/>
			<input>
				<port id="0" precision="FP16">
					<dim>1</dim>
					<dim>48</dim>
					<dim>52</dim>
					<dim>52</dim>
				</port>
				<port id="1" precision="FP16">
					<dim>1</dim>
					<dim>48</dim>
					<dim>52</dim>
					<dim>52</dim>
				</port>
			</input>
			<output>
				<port id="2" precision="FP16" names="concat_2.tmp_0">
					<dim>1</dim>
					<dim>96</dim>
					<dim>52</dim>
					<dim>52</dim>
				</port>
			</output>
		</layer>
		<layer id="142" name="Reshape_541435" type="ShuffleChannels" version="opset3">
			<data axis="1" group="2"/>
			<input>
				<port id="0" precision="FP16">
					<dim>1</dim>
					<dim>96</dim>
					<dim>52</dim>
					<dim>52</dim>
				</port>
			</input>
			<output>
				<port id="1" precision="FP16" names="reshape2_1.tmp_0">
					<dim>1</dim>
					<dim>96</dim>
					<dim>52</dim>
					<dim>52</dim>
				</port>
			</output>
		</layer>
		<layer id="143" name="Split_1/VariadicSplit_input_port_1/value" type="Const" version="opset1">
			<data element_type="i64" shape="" offset="7336" size="8"/>
			<output>
				<port id="0" precision="I64"/>
			</output>
		</layer>
		<layer id="144" name="Split_1/VariadicSplit_input_port_2/value" type="Const" version="opset1">
			<data element_type="i64" shape="2" offset="34256" size="16"/>
			<output>
				<port id="0" precision="I64">
					<dim>2</dim>
				</port>
			</output>
		</layer>
		<layer id="145" name="Split_1/VariadicSplit" type="VariadicSplit" version="opset1">
			<input>
				<port id="0" precision="FP16">
					<dim>1</dim>
					<dim>96</dim>
					<dim>52</dim>
					<dim>52</dim>
				</port>
				<port id="1" precision="I64"/>
				<port id="2" precision="I64">
					<dim>2</dim>
				</port>
			</input>
			<output>
				<port id="3" precision="FP16" names="split_1.tmp_0">
					<dim>1</dim>
					<dim>48</dim>
					<dim>52</dim>
					<dim>52</dim>
				</port>
				<port id="4" precision="FP16" names="split_1.tmp_1">
					<dim>1</dim>
					<dim>48</dim>
					<dim>52</dim>
					<dim>52</dim>
				</port>
			</output>
		</layer>
		<layer id="146" name="3827" type="Const" version="opset1">
			<data element_type="f16" shape="24, 48, 1, 1" offset="44232" size="2304"/>
			<output>
				<port id="0" precision="FP16" names="3827">
					<dim>24</dim>
					<dim>48</dim>
					<dim>1</dim>
					<dim>1</dim>
				</port>
			</output>
		</layer>
		<layer id="147" name="Conv_15/WithoutBiases" type="Convolution" version="opset1">
			<data strides="1, 1" dilations="1, 1" pads_begin="0, 0" pads_end="0, 0" auto_pad="explicit"/>
			<input>
				<port id="0" precision="FP16">
					<dim>1</dim>
					<dim>48</dim>
					<dim>52</dim>
					<dim>52</dim>
				</port>
				<port id="1" precision="FP16">
					<dim>24</dim>
					<dim>48</dim>
					<dim>1</dim>
					<dim>1</dim>
				</port>
			</input>
			<output>
				<port id="2" precision="FP16">
					<dim>1</dim>
					<dim>24</dim>
					<dim>52</dim>
					<dim>52</dim>
				</port>
			</output>
		</layer>
		<layer id="148" name="Conv_15/Dims13199" type="Const" version="opset1">
			<data element_type="f16" shape="1, 24, 1, 1" offset="46536" size="48"/>
			<output>
				<port id="0" precision="FP16">
					<dim>1</dim>
					<dim>24</dim>
					<dim>1</dim>
					<dim>1</dim>
				</port>
			</output>
		</layer>
		<layer id="149" name="Conv_15" type="Add" version="opset1">
			<data auto_broadcast="numpy"/>
			<input>
				<port id="0" precision="FP16">
					<dim>1</dim>
					<dim>24</dim>
					<dim>52</dim>
					<dim>52</dim>
				</port>
				<port id="1" precision="FP16">
					<dim>1</dim>
					<dim>24</dim>
					<dim>1</dim>
					<dim>1</dim>
				</port>
			</input>
			<output>
				<port id="2" precision="FP16" names="conv2d_146.tmp_0">
					<dim>1</dim>
					<dim>24</dim>
					<dim>52</dim>
					<dim>52</dim>
				</port>
			</output>
		</layer>
		<layer id="150" name="Constant_154212" type="Const" version="opset1">
			<data element_type="f16" shape="1, 1, 1, 1" offset="1356" size="2"/>
			<output>
				<port id="0" precision="FP16" names="Constant_1">
					<dim>1</dim>
					<dim>1</dim>
					<dim>1</dim>
					<dim>1</dim>
				</port>
			</output>
		</layer>
		<layer id="151" name="Add_12" type="Add" version="opset1">
			<data auto_broadcast="numpy"/>
			<input>
				<port id="0" precision="FP16">
					<dim>1</dim>
					<dim>24</dim>
					<dim>52</dim>
					<dim>52</dim>
				</port>
				<port id="1" precision="FP16">
					<dim>1</dim>
					<dim>1</dim>
					<dim>1</dim>
					<dim>1</dim>
				</port>
			</input>
			<output>
				<port id="2" precision="FP16" names="Add_12">
					<dim>1</dim>
					<dim>24</dim>
					<dim>52</dim>
					<dim>52</dim>
				</port>
			</output>
		</layer>
		<layer id="152" name="Clip_8" type="Clamp" version="opset1">
			<data min="0" max="6"/>
			<input>
				<port id="0" precision="FP16">
					<dim>1</dim>
					<dim>24</dim>
					<dim>52</dim>
					<dim>52</dim>
				</port>
			</input>
			<output>
				<port id="1" precision="FP16" names="Clip_8">
					<dim>1</dim>
					<dim>24</dim>
					<dim>52</dim>
					<dim>52</dim>
				</port>
			</output>
		</layer>
		<layer id="153" name="Mul_10" type="Multiply" version="opset1">
			<data auto_broadcast="numpy"/>
			<input>
				<port id="0" precision="FP16">
					<dim>1</dim>
					<dim>24</dim>
					<dim>52</dim>
					<dim>52</dim>
				</port>
				<port id="1" precision="FP16">
					<dim>1</dim>
					<dim>24</dim>
					<dim>52</dim>
					<dim>52</dim>
				</port>
			</input>
			<output>
				<port id="2" precision="FP16" names="Mul_10">
					<dim>1</dim>
					<dim>24</dim>
					<dim>52</dim>
					<dim>52</dim>
				</port>
			</output>
		</layer>
		<layer id="154" name="Constant_053150" type="Const" version="opset1">
			<data element_type="f16" shape="1, 1, 1, 1" offset="1358" size="2"/>
			<output>
				<port id="0" precision="FP16" names="Constant_0">
					<dim>1</dim>
					<dim>1</dim>
					<dim>1</dim>
					<dim>1</dim>
				</port>
			</output>
		</layer>
		<layer id="155" name="Div_8" type="Multiply" version="opset1">
			<data auto_broadcast="numpy"/>
			<input>
				<port id="0" precision="FP16">
					<dim>1</dim>
					<dim>24</dim>
					<dim>52</dim>
					<dim>52</dim>
				</port>
				<port id="1" precision="FP16">
					<dim>1</dim>
					<dim>1</dim>
					<dim>1</dim>
					<dim>1</dim>
				</port>
			</input>
			<output>
				<port id="2" precision="FP16" names="batch_norm_11.tmp_4">
					<dim>1</dim>
					<dim>24</dim>
					<dim>52</dim>
					<dim>52</dim>
				</port>
			</output>
		</layer>
		<layer id="156" name="3831" type="Const" version="opset1">
			<data element_type="f16" shape="24, 1, 1, 3, 3" offset="46584" size="432"/>
			<output>
				<port id="0" precision="FP16" names="3831">
					<dim>24</dim>
					<dim>1</dim>
					<dim>1</dim>
					<dim>3</dim>
					<dim>3</dim>
				</port>
			</output>
		</layer>
		<layer id="157" name="Conv_16/WithoutBiases" type="GroupConvolution" version="opset1">
			<data strides="1, 1" pads_begin="1, 1" pads_end="1, 1" dilations="1, 1" auto_pad="explicit"/>
			<input>
				<port id="0" precision="FP16">
					<dim>1</dim>
					<dim>24</dim>
					<dim>52</dim>
					<dim>52</dim>
				</port>
				<port id="1" precision="FP16">
					<dim>24</dim>
					<dim>1</dim>
					<dim>1</dim>
					<dim>3</dim>
					<dim>3</dim>
				</port>
			</input>
			<output>
				<port id="2" precision="FP16">
					<dim>1</dim>
					<dim>24</dim>
					<dim>52</dim>
					<dim>52</dim>
				</port>
			</output>
		</layer>
		<layer id="158" name="Conv_16/Dims12809" type="Const" version="opset1">
			<data element_type="f16" shape="1, 24, 1, 1" offset="47016" size="48"/>
			<output>
				<port id="0" precision="FP16">
					<dim>1</dim>
					<dim>24</dim>
					<dim>1</dim>
					<dim>1</dim>
				</port>
			</output>
		</layer>
		<layer id="159" name="Conv_16" type="Add" version="opset1">
			<data auto_broadcast="numpy"/>
			<input>
				<port id="0" precision="FP16">
					<dim>1</dim>
					<dim>24</dim>
					<dim>52</dim>
					<dim>52</dim>
				</port>
				<port id="1" precision="FP16">
					<dim>1</dim>
					<dim>24</dim>
					<dim>1</dim>
					<dim>1</dim>
				</port>
			</input>
			<output>
				<port id="2" precision="FP16" names="depthwise_conv2d_4.tmp_0">
					<dim>1</dim>
					<dim>24</dim>
					<dim>52</dim>
					<dim>52</dim>
				</port>
			</output>
		</layer>
		<layer id="160" name="Concat_3" type="Concat" version="opset1">
			<data axis="1"/>
			<input>
				<port id="0" precision="FP16">
					<dim>1</dim>
					<dim>24</dim>
					<dim>52</dim>
					<dim>52</dim>
				</port>
				<port id="1" precision="FP16">
					<dim>1</dim>
					<dim>24</dim>
					<dim>52</dim>
					<dim>52</dim>
				</port>
			</input>
			<output>
				<port id="2" precision="FP16" names="concat_3.tmp_0">
					<dim>1</dim>
					<dim>48</dim>
					<dim>52</dim>
					<dim>52</dim>
				</port>
			</output>
		</layer>
		<layer id="161" name="1027" type="Const" version="opset1">
			<data element_type="i64" shape="" offset="7320" size="8"/>
			<output>
				<port id="0" precision="I64"/>
			</output>
		</layer>
		<layer id="162" name="GlobalAveragePool_2/input_rank/shape_of" type="ShapeOf" version="opset3">
			<data output_type="i64"/>
			<input>
				<port id="0" precision="FP16">
					<dim>1</dim>
					<dim>48</dim>
					<dim>52</dim>
					<dim>52</dim>
				</port>
			</input>
			<output>
				<port id="1" precision="I64">
					<dim>4</dim>
				</port>
			</output>
		</layer>
		<layer id="163" name="GlobalAveragePool_2/input_rank/rank_of" type="ShapeOf" version="opset3">
			<data output_type="i64"/>
			<input>
				<port id="0" precision="I64">
					<dim>4</dim>
				</port>
			</input>
			<output>
				<port id="1" precision="I64">
					<dim>1</dim>
				</port>
			</output>
		</layer>
		<layer id="164" name="GlobalAveragePool_2/input_rank/0d_rank_of/value" type="Const" version="opset1">
			<data element_type="i64" shape="1" offset="7328" size="8"/>
			<output>
				<port id="0" precision="I64">
					<dim>1</dim>
				</port>
			</output>
		</layer>
		<layer id="165" name="GlobalAveragePool_2/input_rank" type="Squeeze" version="opset1">
			<input>
				<port id="0" precision="I64">
					<dim>1</dim>
				</port>
				<port id="1" precision="I64">
					<dim>1</dim>
				</port>
			</input>
			<output>
				<port id="2" precision="I64"/>
			</output>
		</layer>
		<layer id="166" name="1029" type="Const" version="opset1">
			<data element_type="i64" shape="" offset="7336" size="8"/>
			<output>
				<port id="0" precision="I64"/>
			</output>
		</layer>
		<layer id="167" name="GlobalAveragePool_2/global_pooling_reduce_axis" type="Range" version="opset4">
			<data output_type="i64"/>
			<input>
				<port id="0" precision="I64"/>
				<port id="1" precision="I64"/>
				<port id="2" precision="I64"/>
			</input>
			<output>
				<port id="3" precision="I64">
					<dim>2</dim>
				</port>
			</output>
		</layer>
		<layer id="168" name="GlobalAveragePool_2/reduce" type="ReduceMean" version="opset1">
			<data keep_dims="true"/>
			<input>
				<port id="0" precision="FP16">
					<dim>1</dim>
					<dim>48</dim>
					<dim>52</dim>
					<dim>52</dim>
				</port>
				<port id="1" precision="I64">
					<dim>2</dim>
				</port>
			</input>
			<output>
				<port id="2" precision="FP16" names="pool2d_3.tmp_0">
					<dim>1</dim>
					<dim>48</dim>
					<dim>1</dim>
					<dim>1</dim>
				</port>
			</output>
		</layer>
		<layer id="169" name="conv2d_17.w_0" type="Const" version="opset1">
			<data element_type="f16" shape="12, 48, 1, 1" offset="47064" size="1152"/>
			<output>
				<port id="0" precision="FP16" names="conv2d_17.w_0">
					<dim>12</dim>
					<dim>48</dim>
					<dim>1</dim>
					<dim>1</dim>
				</port>
			</output>
		</layer>
		<layer id="170" name="Conv_17/WithoutBiases" type="Convolution" version="opset1">
			<data strides="1, 1" dilations="1, 1" pads_begin="0, 0" pads_end="0, 0" auto_pad="explicit"/>
			<input>
				<port id="0" precision="FP16">
					<dim>1</dim>
					<dim>48</dim>
					<dim>1</dim>
					<dim>1</dim>
				</port>
				<port id="1" precision="FP16">
					<dim>12</dim>
					<dim>48</dim>
					<dim>1</dim>
					<dim>1</dim>
				</port>
			</input>
			<output>
				<port id="2" precision="FP16">
					<dim>1</dim>
					<dim>12</dim>
					<dim>1</dim>
					<dim>1</dim>
				</port>
			</output>
		</layer>
		<layer id="171" name="Conv_17/Dims13091" type="Const" version="opset1">
			<data element_type="f16" shape="1, 12, 1, 1" offset="48216" size="24"/>
			<output>
				<port id="0" precision="FP16">
					<dim>1</dim>
					<dim>12</dim>
					<dim>1</dim>
					<dim>1</dim>
				</port>
			</output>
		</layer>
		<layer id="172" name="Conv_17" type="Add" version="opset1">
			<data auto_broadcast="numpy"/>
			<input>
				<port id="0" precision="FP16">
					<dim>1</dim>
					<dim>12</dim>
					<dim>1</dim>
					<dim>1</dim>
				</port>
				<port id="1" precision="FP16">
					<dim>1</dim>
					<dim>12</dim>
					<dim>1</dim>
					<dim>1</dim>
				</port>
			</input>
			<output>
				<port id="2" precision="FP16" names="conv2d_147.tmp_0">
					<dim>1</dim>
					<dim>12</dim>
					<dim>1</dim>
					<dim>1</dim>
				</port>
			</output>
		</layer>
		<layer id="173" name="Relu_2" type="ReLU" version="opset1">
			<input>
				<port id="0" precision="FP16">
					<dim>1</dim>
					<dim>12</dim>
					<dim>1</dim>
					<dim>1</dim>
				</port>
			</input>
			<output>
				<port id="1" precision="FP16" names="relu_2.tmp_0">
					<dim>1</dim>
					<dim>12</dim>
					<dim>1</dim>
					<dim>1</dim>
				</port>
			</output>
		</layer>
		<layer id="174" name="conv2d_18.w_0" type="Const" version="opset1">
			<data element_type="f16" shape="48, 12, 1, 1" offset="48240" size="1152"/>
			<output>
				<port id="0" precision="FP16" names="conv2d_18.w_0">
					<dim>48</dim>
					<dim>12</dim>
					<dim>1</dim>
					<dim>1</dim>
				</port>
			</output>
		</layer>
		<layer id="175" name="Conv_18/WithoutBiases" type="Convolution" version="opset1">
			<data strides="1, 1" dilations="1, 1" pads_begin="0, 0" pads_end="0, 0" auto_pad="explicit"/>
			<input>
				<port id="0" precision="FP16">
					<dim>1</dim>
					<dim>12</dim>
					<dim>1</dim>
					<dim>1</dim>
				</port>
				<port id="1" precision="FP16">
					<dim>48</dim>
					<dim>12</dim>
					<dim>1</dim>
					<dim>1</dim>
				</port>
			</input>
			<output>
				<port id="2" precision="FP16">
					<dim>1</dim>
					<dim>48</dim>
					<dim>1</dim>
					<dim>1</dim>
				</port>
			</output>
		</layer>
		<layer id="176" name="Conv_18/Dims12929" type="Const" version="opset1">
			<data element_type="f16" shape="1, 48, 1, 1" offset="49392" size="96"/>
			<output>
				<port id="0" precision="FP16">
					<dim>1</dim>
					<dim>48</dim>
					<dim>1</dim>
					<dim>1</dim>
				</port>
			</output>
		</layer>
		<layer id="177" name="Conv_18" type="Add" version="opset1">
			<data auto_broadcast="numpy"/>
			<input>
				<port id="0" precision="FP16">
					<dim>1</dim>
					<dim>48</dim>
					<dim>1</dim>
					<dim>1</dim>
				</port>
				<port id="1" precision="FP16">
					<dim>1</dim>
					<dim>48</dim>
					<dim>1</dim>
					<dim>1</dim>
				</port>
			</input>
			<output>
				<port id="2" precision="FP16" names="conv2d_148.tmp_0">
					<dim>1</dim>
					<dim>48</dim>
					<dim>1</dim>
					<dim>1</dim>
				</port>
			</output>
		</layer>
		<layer id="178" name="HardSigmoid_2/HardSigmoid__input_port_1/value" type="Const" version="opset1">
			<data element_type="f16" shape="" offset="1358" size="2"/>
			<output>
				<port id="0" precision="FP16"/>
			</output>
		</layer>
		<layer id="179" name="HardSigmoid_2/HardSigmoid__input_port_2/value" type="Const" version="opset1">
			<data element_type="f16" shape="" offset="9390" size="2"/>
			<output>
				<port id="0" precision="FP16"/>
			</output>
		</layer>
		<layer id="180" name="HardSigmoid_2/HardSigmoid_" type="HardSigmoid" version="opset1">
			<input>
				<port id="0" precision="FP16">
					<dim>1</dim>
					<dim>48</dim>
					<dim>1</dim>
					<dim>1</dim>
				</port>
				<port id="1" precision="FP16"/>
				<port id="2" precision="FP16"/>
			</input>
			<output>
				<port id="3" precision="FP16" names="hardsigmoid_2.tmp_0">
					<dim>1</dim>
					<dim>48</dim>
					<dim>1</dim>
					<dim>1</dim>
				</port>
			</output>
		</layer>
		<layer id="181" name="Mul_11" type="Multiply" version="opset1">
			<data auto_broadcast="numpy"/>
			<input>
				<port id="0" precision="FP16">
					<dim>1</dim>
					<dim>48</dim>
					<dim>52</dim>
					<dim>52</dim>
				</port>
				<port id="1" precision="FP16">
					<dim>1</dim>
					<dim>48</dim>
					<dim>1</dim>
					<dim>1</dim>
				</port>
			</input>
			<output>
				<port id="2" precision="FP16" names="elementwise_mul_2">
					<dim>1</dim>
					<dim>48</dim>
					<dim>52</dim>
					<dim>52</dim>
				</port>
			</output>
		</layer>
		<layer id="182" name="3835" type="Const" version="opset1">
			<data element_type="f16" shape="48, 48, 1, 1" offset="49488" size="4608"/>
			<output>
				<port id="0" precision="FP16" names="3835">
					<dim>48</dim>
					<dim>48</dim>
					<dim>1</dim>
					<dim>1</dim>
				</port>
			</output>
		</layer>
		<layer id="183" name="Conv_19/WithoutBiases" type="Convolution" version="opset1">
			<data strides="1, 1" dilations="1, 1" pads_begin="0, 0" pads_end="0, 0" auto_pad="explicit"/>
			<input>
				<port id="0" precision="FP16">
					<dim>1</dim>
					<dim>48</dim>
					<dim>52</dim>
					<dim>52</dim>
				</port>
				<port id="1" precision="FP16">
					<dim>48</dim>
					<dim>48</dim>
					<dim>1</dim>
					<dim>1</dim>
				</port>
			</input>
			<output>
				<port id="2" precision="FP16">
					<dim>1</dim>
					<dim>48</dim>
					<dim>52</dim>
					<dim>52</dim>
				</port>
			</output>
		</layer>
		<layer id="184" name="Conv_19/Dims12827" type="Const" version="opset1">
			<data element_type="f16" shape="1, 48, 1, 1" offset="54096" size="96"/>
			<output>
				<port id="0" precision="FP16">
					<dim>1</dim>
					<dim>48</dim>
					<dim>1</dim>
					<dim>1</dim>
				</port>
			</output>
		</layer>
		<layer id="185" name="Conv_19" type="Add" version="opset1">
			<data auto_broadcast="numpy"/>
			<input>
				<port id="0" precision="FP16">
					<dim>1</dim>
					<dim>48</dim>
					<dim>52</dim>
					<dim>52</dim>
				</port>
				<port id="1" precision="FP16">
					<dim>1</dim>
					<dim>48</dim>
					<dim>1</dim>
					<dim>1</dim>
				</port>
			</input>
			<output>
				<port id="2" precision="FP16" names="conv2d_149.tmp_0">
					<dim>1</dim>
					<dim>48</dim>
					<dim>52</dim>
					<dim>52</dim>
				</port>
			</output>
		</layer>
		<layer id="186" name="Constant_154419" type="Const" version="opset1">
			<data element_type="f16" shape="1, 1, 1, 1" offset="1356" size="2"/>
			<output>
				<port id="0" precision="FP16" names="Constant_1">
					<dim>1</dim>
					<dim>1</dim>
					<dim>1</dim>
					<dim>1</dim>
				</port>
			</output>
		</layer>
		<layer id="187" name="Add_15" type="Add" version="opset1">
			<data auto_broadcast="numpy"/>
			<input>
				<port id="0" precision="FP16">
					<dim>1</dim>
					<dim>48</dim>
					<dim>52</dim>
					<dim>52</dim>
				</port>
				<port id="1" precision="FP16">
					<dim>1</dim>
					<dim>1</dim>
					<dim>1</dim>
					<dim>1</dim>
				</port>
			</input>
			<output>
				<port id="2" precision="FP16" names="Add_15">
					<dim>1</dim>
					<dim>48</dim>
					<dim>52</dim>
					<dim>52</dim>
				</port>
			</output>
		</layer>
		<layer id="188" name="Clip_9" type="Clamp" version="opset1">
			<data min="0" max="6"/>
			<input>
				<port id="0" precision="FP16">
					<dim>1</dim>
					<dim>48</dim>
					<dim>52</dim>
					<dim>52</dim>
				</port>
			</input>
			<output>
				<port id="1" precision="FP16" names="Clip_9">
					<dim>1</dim>
					<dim>48</dim>
					<dim>52</dim>
					<dim>52</dim>
				</port>
			</output>
		</layer>
		<layer id="189" name="Mul_12" type="Multiply" version="opset1">
			<data auto_broadcast="numpy"/>
			<input>
				<port id="0" precision="FP16">
					<dim>1</dim>
					<dim>48</dim>
					<dim>52</dim>
					<dim>52</dim>
				</port>
				<port id="1" precision="FP16">
					<dim>1</dim>
					<dim>48</dim>
					<dim>52</dim>
					<dim>52</dim>
				</port>
			</input>
			<output>
				<port id="2" precision="FP16" names="Mul_12">
					<dim>1</dim>
					<dim>48</dim>
					<dim>52</dim>
					<dim>52</dim>
				</port>
			</output>
		</layer>
		<layer id="190" name="Constant_053204" type="Const" version="opset1">
			<data element_type="f16" shape="1, 1, 1, 1" offset="1358" size="2"/>
			<output>
				<port id="0" precision="FP16" names="Constant_0">
					<dim>1</dim>
					<dim>1</dim>
					<dim>1</dim>
					<dim>1</dim>
				</port>
			</output>
		</layer>
		<layer id="191" name="Div_9" type="Multiply" version="opset1">
			<data auto_broadcast="numpy"/>
			<input>
				<port id="0" precision="FP16">
					<dim>1</dim>
					<dim>48</dim>
					<dim>52</dim>
					<dim>52</dim>
				</port>
				<port id="1" precision="FP16">
					<dim>1</dim>
					<dim>1</dim>
					<dim>1</dim>
					<dim>1</dim>
				</port>
			</input>
			<output>
				<port id="2" precision="FP16" names="batch_norm_13.tmp_4">
					<dim>1</dim>
					<dim>48</dim>
					<dim>52</dim>
					<dim>52</dim>
				</port>
			</output>
		</layer>
		<layer id="192" name="Concat_4" type="Concat" version="opset1">
			<data axis="1"/>
			<input>
				<port id="0" precision="FP16">
					<dim>1</dim>
					<dim>48</dim>
					<dim>52</dim>
					<dim>52</dim>
				</port>
				<port id="1" precision="FP16">
					<dim>1</dim>
					<dim>48</dim>
					<dim>52</dim>
					<dim>52</dim>
				</port>
			</input>
			<output>
				<port id="2" precision="FP16" names="concat_4.tmp_0">
					<dim>1</dim>
					<dim>96</dim>
					<dim>52</dim>
					<dim>52</dim>
				</port>
			</output>
		</layer>
		<layer id="193" name="Reshape_941439" type="ShuffleChannels" version="opset3">
			<data axis="1" group="2"/>
			<input>
				<port id="0" precision="FP16">
					<dim>1</dim>
					<dim>96</dim>
					<dim>52</dim>
					<dim>52</dim>
				</port>
			</input>
			<output>
				<port id="1" precision="FP16" names="reshape2_3.tmp_0">
					<dim>1</dim>
					<dim>96</dim>
					<dim>52</dim>
					<dim>52</dim>
				</port>
			</output>
		</layer>
		<layer id="194" name="3839" type="Const" version="opset1">
			<data element_type="f16" shape="96, 1, 1, 3, 3" offset="54192" size="1728"/>
			<output>
				<port id="0" precision="FP16" names="3839">
					<dim>96</dim>
					<dim>1</dim>
					<dim>1</dim>
					<dim>3</dim>
					<dim>3</dim>
				</port>
			</output>
		</layer>
		<layer id="195" name="Conv_20/WithoutBiases" type="GroupConvolution" version="opset1">
			<data strides="2, 2" pads_begin="1, 1" pads_end="1, 1" dilations="1, 1" auto_pad="explicit"/>
			<input>
				<port id="0" precision="FP16">
					<dim>1</dim>
					<dim>96</dim>
					<dim>52</dim>
					<dim>52</dim>
				</port>
				<port id="1" precision="FP16">
					<dim>96</dim>
					<dim>1</dim>
					<dim>1</dim>
					<dim>3</dim>
					<dim>3</dim>
				</port>
			</input>
			<output>
				<port id="2" precision="FP16">
					<dim>1</dim>
					<dim>96</dim>
					<dim>26</dim>
					<dim>26</dim>
				</port>
			</output>
		</layer>
		<layer id="196" name="Conv_20/Dims13031" type="Const" version="opset1">
			<data element_type="f16" shape="1, 96, 1, 1" offset="55920" size="192"/>
			<output>
				<port id="0" precision="FP16">
					<dim>1</dim>
					<dim>96</dim>
					<dim>1</dim>
					<dim>1</dim>
				</port>
			</output>
		</layer>
		<layer id="197" name="Conv_20" type="Add" version="opset1">
			<data auto_broadcast="numpy"/>
			<input>
				<port id="0" precision="FP16">
					<dim>1</dim>
					<dim>96</dim>
					<dim>26</dim>
					<dim>26</dim>
				</port>
				<port id="1" precision="FP16">
					<dim>1</dim>
					<dim>96</dim>
					<dim>1</dim>
					<dim>1</dim>
				</port>
			</input>
			<output>
				<port id="2" precision="FP16" names="depthwise_conv2d_5.tmp_0">
					<dim>1</dim>
					<dim>96</dim>
					<dim>26</dim>
					<dim>26</dim>
				</port>
			</output>
		</layer>
		<layer id="198" name="3843" type="Const" version="opset1">
			<data element_type="f16" shape="96, 96, 1, 1" offset="56112" size="18432"/>
			<output>
				<port id="0" precision="FP16" names="3843">
					<dim>96</dim>
					<dim>96</dim>
					<dim>1</dim>
					<dim>1</dim>
				</port>
			</output>
		</layer>
		<layer id="199" name="Conv_21/WithoutBiases" type="Convolution" version="opset1">
			<data strides="1, 1" dilations="1, 1" pads_begin="0, 0" pads_end="0, 0" auto_pad="explicit"/>
			<input>
				<port id="0" precision="FP16">
					<dim>1</dim>
					<dim>96</dim>
					<dim>26</dim>
					<dim>26</dim>
				</port>
				<port id="1" precision="FP16">
					<dim>96</dim>
					<dim>96</dim>
					<dim>1</dim>
					<dim>1</dim>
				</port>
			</input>
			<output>
				<port id="2" precision="FP16">
					<dim>1</dim>
					<dim>96</dim>
					<dim>26</dim>
					<dim>26</dim>
				</port>
			</output>
		</layer>
		<layer id="200" name="Conv_21/Dims13247" type="Const" version="opset1">
			<data element_type="f16" shape="1, 96, 1, 1" offset="74544" size="192"/>
			<output>
				<port id="0" precision="FP16">
					<dim>1</dim>
					<dim>96</dim>
					<dim>1</dim>
					<dim>1</dim>
				</port>
			</output>
		</layer>
		<layer id="201" name="Conv_21" type="Add" version="opset1">
			<data auto_broadcast="numpy"/>
			<input>
				<port id="0" precision="FP16">
					<dim>1</dim>
					<dim>96</dim>
					<dim>26</dim>
					<dim>26</dim>
				</port>
				<port id="1" precision="FP16">
					<dim>1</dim>
					<dim>96</dim>
					<dim>1</dim>
					<dim>1</dim>
				</port>
			</input>
			<output>
				<port id="2" precision="FP16" names="conv2d_150.tmp_0">
					<dim>1</dim>
					<dim>96</dim>
					<dim>26</dim>
					<dim>26</dim>
				</port>
			</output>
		</layer>
		<layer id="202" name="Constant_153411" type="Const" version="opset1">
			<data element_type="f16" shape="1, 1, 1, 1" offset="1356" size="2"/>
			<output>
				<port id="0" precision="FP16" names="Constant_1">
					<dim>1</dim>
					<dim>1</dim>
					<dim>1</dim>
					<dim>1</dim>
				</port>
			</output>
		</layer>
		<layer id="203" name="Add_16" type="Add" version="opset1">
			<data auto_broadcast="numpy"/>
			<input>
				<port id="0" precision="FP16">
					<dim>1</dim>
					<dim>96</dim>
					<dim>26</dim>
					<dim>26</dim>
				</port>
				<port id="1" precision="FP16">
					<dim>1</dim>
					<dim>1</dim>
					<dim>1</dim>
					<dim>1</dim>
				</port>
			</input>
			<output>
				<port id="2" precision="FP16" names="Add_16">
					<dim>1</dim>
					<dim>96</dim>
					<dim>26</dim>
					<dim>26</dim>
				</port>
			</output>
		</layer>
		<layer id="204" name="Clip_10" type="Clamp" version="opset1">
			<data min="0" max="6"/>
			<input>
				<port id="0" precision="FP16">
					<dim>1</dim>
					<dim>96</dim>
					<dim>26</dim>
					<dim>26</dim>
				</port>
			</input>
			<output>
				<port id="1" precision="FP16" names="Clip_10">
					<dim>1</dim>
					<dim>96</dim>
					<dim>26</dim>
					<dim>26</dim>
				</port>
			</output>
		</layer>
		<layer id="205" name="Mul_13" type="Multiply" version="opset1">
			<data auto_broadcast="numpy"/>
			<input>
				<port id="0" precision="FP16">
					<dim>1</dim>
					<dim>96</dim>
					<dim>26</dim>
					<dim>26</dim>
				</port>
				<port id="1" precision="FP16">
					<dim>1</dim>
					<dim>96</dim>
					<dim>26</dim>
					<dim>26</dim>
				</port>
			</input>
			<output>
				<port id="2" precision="FP16" names="Mul_13">
					<dim>1</dim>
					<dim>96</dim>
					<dim>26</dim>
					<dim>26</dim>
				</port>
			</output>
		</layer>
		<layer id="206" name="Constant_053222" type="Const" version="opset1">
			<data element_type="f16" shape="1, 1, 1, 1" offset="1358" size="2"/>
			<output>
				<port id="0" precision="FP16" names="Constant_0">
					<dim>1</dim>
					<dim>1</dim>
					<dim>1</dim>
					<dim>1</dim>
				</port>
			</output>
		</layer>
		<layer id="207" name="Div_10" type="Multiply" version="opset1">
			<data auto_broadcast="numpy"/>
			<input>
				<port id="0" precision="FP16">
					<dim>1</dim>
					<dim>96</dim>
					<dim>26</dim>
					<dim>26</dim>
				</port>
				<port id="1" precision="FP16">
					<dim>1</dim>
					<dim>1</dim>
					<dim>1</dim>
					<dim>1</dim>
				</port>
			</input>
			<output>
				<port id="2" precision="FP16" names="batch_norm_15.tmp_4">
					<dim>1</dim>
					<dim>96</dim>
					<dim>26</dim>
					<dim>26</dim>
				</port>
			</output>
		</layer>
		<layer id="208" name="3847" type="Const" version="opset1">
			<data element_type="f16" shape="48, 96, 1, 1" offset="74736" size="9216"/>
			<output>
				<port id="0" precision="FP16" names="3847">
					<dim>48</dim>
					<dim>96</dim>
					<dim>1</dim>
					<dim>1</dim>
				</port>
			</output>
		</layer>
		<layer id="209" name="Conv_22/WithoutBiases" type="Convolution" version="opset1">
			<data strides="1, 1" dilations="1, 1" pads_begin="0, 0" pads_end="0, 0" auto_pad="explicit"/>
			<input>
				<port id="0" precision="FP16">
					<dim>1</dim>
					<dim>96</dim>
					<dim>52</dim>
					<dim>52</dim>
				</port>
				<port id="1" precision="FP16">
					<dim>48</dim>
					<dim>96</dim>
					<dim>1</dim>
					<dim>1</dim>
				</port>
			</input>
			<output>
				<port id="2" precision="FP16">
					<dim>1</dim>
					<dim>48</dim>
					<dim>52</dim>
					<dim>52</dim>
				</port>
			</output>
		</layer>
		<layer id="210" name="Conv_22/Dims13187" type="Const" version="opset1">
			<data element_type="f16" shape="1, 48, 1, 1" offset="83952" size="96"/>
			<output>
				<port id="0" precision="FP16">
					<dim>1</dim>
					<dim>48</dim>
					<dim>1</dim>
					<dim>1</dim>
				</port>
			</output>
		</layer>
		<layer id="211" name="Conv_22" type="Add" version="opset1">
			<data auto_broadcast="numpy"/>
			<input>
				<port id="0" precision="FP16">
					<dim>1</dim>
					<dim>48</dim>
					<dim>52</dim>
					<dim>52</dim>
				</port>
				<port id="1" precision="FP16">
					<dim>1</dim>
					<dim>48</dim>
					<dim>1</dim>
					<dim>1</dim>
				</port>
			</input>
			<output>
				<port id="2" precision="FP16" names="conv2d_151.tmp_0">
					<dim>1</dim>
					<dim>48</dim>
					<dim>52</dim>
					<dim>52</dim>
				</port>
			</output>
		</layer>
		<layer id="212" name="Constant_153135" type="Const" version="opset1">
			<data element_type="f16" shape="1, 1, 1, 1" offset="1356" size="2"/>
			<output>
				<port id="0" precision="FP16" names="Constant_1">
					<dim>1</dim>
					<dim>1</dim>
					<dim>1</dim>
					<dim>1</dim>
				</port>
			</output>
		</layer>
		<layer id="213" name="Add_17" type="Add" version="opset1">
			<data auto_broadcast="numpy"/>
			<input>
				<port id="0" precision="FP16">
					<dim>1</dim>
					<dim>48</dim>
					<dim>52</dim>
					<dim>52</dim>
				</port>
				<port id="1" precision="FP16">
					<dim>1</dim>
					<dim>1</dim>
					<dim>1</dim>
					<dim>1</dim>
				</port>
			</input>
			<output>
				<port id="2" precision="FP16" names="Add_17">
					<dim>1</dim>
					<dim>48</dim>
					<dim>52</dim>
					<dim>52</dim>
				</port>
			</output>
		</layer>
		<layer id="214" name="Clip_11" type="Clamp" version="opset1">
			<data min="0" max="6"/>
			<input>
				<port id="0" precision="FP16">
					<dim>1</dim>
					<dim>48</dim>
					<dim>52</dim>
					<dim>52</dim>
				</port>
			</input>
			<output>
				<port id="1" precision="FP16" names="Clip_11">
					<dim>1</dim>
					<dim>48</dim>
					<dim>52</dim>
					<dim>52</dim>
				</port>
			</output>
		</layer>
		<layer id="215" name="Mul_14" type="Multiply" version="opset1">
			<data auto_broadcast="numpy"/>
			<input>
				<port id="0" precision="FP16">
					<dim>1</dim>
					<dim>48</dim>
					<dim>52</dim>
					<dim>52</dim>
				</port>
				<port id="1" precision="FP16">
					<dim>1</dim>
					<dim>48</dim>
					<dim>52</dim>
					<dim>52</dim>
				</port>
			</input>
			<output>
				<port id="2" precision="FP16" names="batch_norm_16.tmp_4">
					<dim>1</dim>
					<dim>48</dim>
					<dim>52</dim>
					<dim>52</dim>
				</port>
			</output>
		</layer>
		<layer id="216" name="Div_11_copy" type="Const" version="opset1">
			<data element_type="f16" shape="48, 1, 1, 3, 3" offset="84048" size="864"/>
			<output>
				<port id="0" precision="FP16" names="3851">
					<dim>48</dim>
					<dim>1</dim>
					<dim>1</dim>
					<dim>3</dim>
					<dim>3</dim>
				</port>
			</output>
		</layer>
		<layer id="217" name="Conv_23/WithoutBiases" type="GroupConvolution" version="opset1">
			<data strides="2, 2" pads_begin="1, 1" pads_end="1, 1" dilations="1, 1" auto_pad="explicit"/>
			<input>
				<port id="0" precision="FP16">
					<dim>1</dim>
					<dim>48</dim>
					<dim>52</dim>
					<dim>52</dim>
				</port>
				<port id="1" precision="FP16">
					<dim>48</dim>
					<dim>1</dim>
					<dim>1</dim>
					<dim>3</dim>
					<dim>3</dim>
				</port>
			</input>
			<output>
				<port id="2" precision="FP16">
					<dim>1</dim>
					<dim>48</dim>
					<dim>26</dim>
					<dim>26</dim>
				</port>
			</output>
		</layer>
		<layer id="218" name="Conv_23/Dims13265" type="Const" version="opset1">
			<data element_type="f16" shape="1, 48, 1, 1" offset="84912" size="96"/>
			<output>
				<port id="0" precision="FP16">
					<dim>1</dim>
					<dim>48</dim>
					<dim>1</dim>
					<dim>1</dim>
				</port>
			</output>
		</layer>
		<layer id="219" name="Conv_23" type="Add" version="opset1">
			<data auto_broadcast="numpy"/>
			<input>
				<port id="0" precision="FP16">
					<dim>1</dim>
					<dim>48</dim>
					<dim>26</dim>
					<dim>26</dim>
				</port>
				<port id="1" precision="FP16">
					<dim>1</dim>
					<dim>48</dim>
					<dim>1</dim>
					<dim>1</dim>
				</port>
			</input>
			<output>
				<port id="2" precision="FP16" names="depthwise_conv2d_6.tmp_0">
					<dim>1</dim>
					<dim>48</dim>
					<dim>26</dim>
					<dim>26</dim>
				</port>
			</output>
		</layer>
		<layer id="220" name="1032" type="Const" version="opset1">
			<data element_type="i64" shape="" offset="7320" size="8"/>
			<output>
				<port id="0" precision="I64"/>
			</output>
		</layer>
		<layer id="221" name="GlobalAveragePool_3/input_rank/shape_of" type="ShapeOf" version="opset3">
			<data output_type="i64"/>
			<input>
				<port id="0" precision="FP16">
					<dim>1</dim>
					<dim>48</dim>
					<dim>26</dim>
					<dim>26</dim>
				</port>
			</input>
			<output>
				<port id="1" precision="I64">
					<dim>4</dim>
				</port>
			</output>
		</layer>
		<layer id="222" name="GlobalAveragePool_3/input_rank/rank_of" type="ShapeOf" version="opset3">
			<data output_type="i64"/>
			<input>
				<port id="0" precision="I64">
					<dim>4</dim>
				</port>
			</input>
			<output>
				<port id="1" precision="I64">
					<dim>1</dim>
				</port>
			</output>
		</layer>
		<layer id="223" name="GlobalAveragePool_3/input_rank/0d_rank_of/value" type="Const" version="opset1">
			<data element_type="i64" shape="1" offset="7328" size="8"/>
			<output>
				<port id="0" precision="I64">
					<dim>1</dim>
				</port>
			</output>
		</layer>
		<layer id="224" name="GlobalAveragePool_3/input_rank" type="Squeeze" version="opset1">
			<input>
				<port id="0" precision="I64">
					<dim>1</dim>
				</port>
				<port id="1" precision="I64">
					<dim>1</dim>
				</port>
			</input>
			<output>
				<port id="2" precision="I64"/>
			</output>
		</layer>
		<layer id="225" name="1034" type="Const" version="opset1">
			<data element_type="i64" shape="" offset="7336" size="8"/>
			<output>
				<port id="0" precision="I64"/>
			</output>
		</layer>
		<layer id="226" name="GlobalAveragePool_3/global_pooling_reduce_axis" type="Range" version="opset4">
			<data output_type="i64"/>
			<input>
				<port id="0" precision="I64"/>
				<port id="1" precision="I64"/>
				<port id="2" precision="I64"/>
			</input>
			<output>
				<port id="3" precision="I64">
					<dim>2</dim>
				</port>
			</output>
		</layer>
		<layer id="227" name="GlobalAveragePool_3/reduce" type="ReduceMean" version="opset1">
			<data keep_dims="true"/>
			<input>
				<port id="0" precision="FP16">
					<dim>1</dim>
					<dim>48</dim>
					<dim>26</dim>
					<dim>26</dim>
				</port>
				<port id="1" precision="I64">
					<dim>2</dim>
				</port>
			</input>
			<output>
				<port id="2" precision="FP16" names="pool2d_4.tmp_0">
					<dim>1</dim>
					<dim>48</dim>
					<dim>1</dim>
					<dim>1</dim>
				</port>
			</output>
		</layer>
		<layer id="228" name="conv2d_24.w_0" type="Const" version="opset1">
			<data element_type="f16" shape="12, 48, 1, 1" offset="85008" size="1152"/>
			<output>
				<port id="0" precision="FP16" names="conv2d_24.w_0">
					<dim>12</dim>
					<dim>48</dim>
					<dim>1</dim>
					<dim>1</dim>
				</port>
			</output>
		</layer>
		<layer id="229" name="Conv_24/WithoutBiases" type="Convolution" version="opset1">
			<data strides="1, 1" dilations="1, 1" pads_begin="0, 0" pads_end="0, 0" auto_pad="explicit"/>
			<input>
				<port id="0" precision="FP16">
					<dim>1</dim>
					<dim>48</dim>
					<dim>1</dim>
					<dim>1</dim>
				</port>
				<port id="1" precision="FP16">
					<dim>12</dim>
					<dim>48</dim>
					<dim>1</dim>
					<dim>1</dim>
				</port>
			</input>
			<output>
				<port id="2" precision="FP16">
					<dim>1</dim>
					<dim>12</dim>
					<dim>1</dim>
					<dim>1</dim>
				</port>
			</output>
		</layer>
		<layer id="230" name="Conv_24/Dims13277" type="Const" version="opset1">
			<data element_type="f16" shape="1, 12, 1, 1" offset="86160" size="24"/>
			<output>
				<port id="0" precision="FP16">
					<dim>1</dim>
					<dim>12</dim>
					<dim>1</dim>
					<dim>1</dim>
				</port>
			</output>
		</layer>
		<layer id="231" name="Conv_24" type="Add" version="opset1">
			<data auto_broadcast="numpy"/>
			<input>
				<port id="0" precision="FP16">
					<dim>1</dim>
					<dim>12</dim>
					<dim>1</dim>
					<dim>1</dim>
				</port>
				<port id="1" precision="FP16">
					<dim>1</dim>
					<dim>12</dim>
					<dim>1</dim>
					<dim>1</dim>
				</port>
			</input>
			<output>
				<port id="2" precision="FP16" names="conv2d_152.tmp_0">
					<dim>1</dim>
					<dim>12</dim>
					<dim>1</dim>
					<dim>1</dim>
				</port>
			</output>
		</layer>
		<layer id="232" name="Relu_3" type="ReLU" version="opset1">
			<input>
				<port id="0" precision="FP16">
					<dim>1</dim>
					<dim>12</dim>
					<dim>1</dim>
					<dim>1</dim>
				</port>
			</input>
			<output>
				<port id="1" precision="FP16" names="relu_3.tmp_0">
					<dim>1</dim>
					<dim>12</dim>
					<dim>1</dim>
					<dim>1</dim>
				</port>
			</output>
		</layer>
		<layer id="233" name="conv2d_25.w_0" type="Const" version="opset1">
			<data element_type="f16" shape="48, 12, 1, 1" offset="86184" size="1152"/>
			<output>
				<port id="0" precision="FP16" names="conv2d_25.w_0">
					<dim>48</dim>
					<dim>12</dim>
					<dim>1</dim>
					<dim>1</dim>
				</port>
			</output>
		</layer>
		<layer id="234" name="Conv_25/WithoutBiases" type="Convolution" version="opset1">
			<data strides="1, 1" dilations="1, 1" pads_begin="0, 0" pads_end="0, 0" auto_pad="explicit"/>
			<input>
				<port id="0" precision="FP16">
					<dim>1</dim>
					<dim>12</dim>
					<dim>1</dim>
					<dim>1</dim>
				</port>
				<port id="1" precision="FP16">
					<dim>48</dim>
					<dim>12</dim>
					<dim>1</dim>
					<dim>1</dim>
				</port>
			</input>
			<output>
				<port id="2" precision="FP16">
					<dim>1</dim>
					<dim>48</dim>
					<dim>1</dim>
					<dim>1</dim>
				</port>
			</output>
		</layer>
		<layer id="235" name="Conv_25/Dims12653" type="Const" version="opset1">
			<data element_type="f16" shape="1, 48, 1, 1" offset="87336" size="96"/>
			<output>
				<port id="0" precision="FP16">
					<dim>1</dim>
					<dim>48</dim>
					<dim>1</dim>
					<dim>1</dim>
				</port>
			</output>
		</layer>
		<layer id="236" name="Conv_25" type="Add" version="opset1">
			<data auto_broadcast="numpy"/>
			<input>
				<port id="0" precision="FP16">
					<dim>1</dim>
					<dim>48</dim>
					<dim>1</dim>
					<dim>1</dim>
				</port>
				<port id="1" precision="FP16">
					<dim>1</dim>
					<dim>48</dim>
					<dim>1</dim>
					<dim>1</dim>
				</port>
			</input>
			<output>
				<port id="2" precision="FP16" names="conv2d_153.tmp_0">
					<dim>1</dim>
					<dim>48</dim>
					<dim>1</dim>
					<dim>1</dim>
				</port>
			</output>
		</layer>
		<layer id="237" name="HardSigmoid_3/HardSigmoid__input_port_1/value" type="Const" version="opset1">
			<data element_type="f16" shape="" offset="1358" size="2"/>
			<output>
				<port id="0" precision="FP16"/>
			</output>
		</layer>
		<layer id="238" name="HardSigmoid_3/HardSigmoid__input_port_2/value" type="Const" version="opset1">
			<data element_type="f16" shape="" offset="9390" size="2"/>
			<output>
				<port id="0" precision="FP16"/>
			</output>
		</layer>
		<layer id="239" name="HardSigmoid_3/HardSigmoid_" type="HardSigmoid" version="opset1">
			<input>
				<port id="0" precision="FP16">
					<dim>1</dim>
					<dim>48</dim>
					<dim>1</dim>
					<dim>1</dim>
				</port>
				<port id="1" precision="FP16"/>
				<port id="2" precision="FP16"/>
			</input>
			<output>
				<port id="3" precision="FP16" names="hardsigmoid_3.tmp_0">
					<dim>1</dim>
					<dim>48</dim>
					<dim>1</dim>
					<dim>1</dim>
				</port>
			</output>
		</layer>
		<layer id="240" name="Mul_15" type="Multiply" version="opset1">
			<data auto_broadcast="numpy"/>
			<input>
				<port id="0" precision="FP16">
					<dim>1</dim>
					<dim>48</dim>
					<dim>26</dim>
					<dim>26</dim>
				</port>
				<port id="1" precision="FP16">
					<dim>1</dim>
					<dim>48</dim>
					<dim>1</dim>
					<dim>1</dim>
				</port>
			</input>
			<output>
				<port id="2" precision="FP16" names="elementwise_mul_3">
					<dim>1</dim>
					<dim>48</dim>
					<dim>26</dim>
					<dim>26</dim>
				</port>
			</output>
		</layer>
		<layer id="241" name="3855" type="Const" version="opset1">
			<data element_type="f16" shape="96, 48, 1, 1" offset="87432" size="9216"/>
			<output>
				<port id="0" precision="FP16" names="3855">
					<dim>96</dim>
					<dim>48</dim>
					<dim>1</dim>
					<dim>1</dim>
				</port>
			</output>
		</layer>
		<layer id="242" name="Conv_26/WithoutBiases" type="Convolution" version="opset1">
			<data strides="1, 1" dilations="1, 1" pads_begin="0, 0" pads_end="0, 0" auto_pad="explicit"/>
			<input>
				<port id="0" precision="FP16">
					<dim>1</dim>
					<dim>48</dim>
					<dim>26</dim>
					<dim>26</dim>
				</port>
				<port id="1" precision="FP16">
					<dim>96</dim>
					<dim>48</dim>
					<dim>1</dim>
					<dim>1</dim>
				</port>
			</input>
			<output>
				<port id="2" precision="FP16">
					<dim>1</dim>
					<dim>96</dim>
					<dim>26</dim>
					<dim>26</dim>
				</port>
			</output>
		</layer>
		<layer id="243" name="Conv_26/Dims12857" type="Const" version="opset1">
			<data element_type="f16" shape="1, 96, 1, 1" offset="96648" size="192"/>
			<output>
				<port id="0" precision="FP16">
					<dim>1</dim>
					<dim>96</dim>
					<dim>1</dim>
					<dim>1</dim>
				</port>
			</output>
		</layer>
		<layer id="244" name="Conv_26" type="Add" version="opset1">
			<data auto_broadcast="numpy"/>
			<input>
				<port id="0" precision="FP16">
					<dim>1</dim>
					<dim>96</dim>
					<dim>26</dim>
					<dim>26</dim>
				</port>
				<port id="1" precision="FP16">
					<dim>1</dim>
					<dim>96</dim>
					<dim>1</dim>
					<dim>1</dim>
				</port>
			</input>
			<output>
				<port id="2" precision="FP16" names="conv2d_154.tmp_0">
					<dim>1</dim>
					<dim>96</dim>
					<dim>26</dim>
					<dim>26</dim>
				</port>
			</output>
		</layer>
		<layer id="245" name="Constant_154299" type="Const" version="opset1">
			<data element_type="f16" shape="1, 1, 1, 1" offset="1356" size="2"/>
			<output>
				<port id="0" precision="FP16" names="Constant_1">
					<dim>1</dim>
					<dim>1</dim>
					<dim>1</dim>
					<dim>1</dim>
				</port>
			</output>
		</layer>
		<layer id="246" name="Add_20" type="Add" version="opset1">
			<data auto_broadcast="numpy"/>
			<input>
				<port id="0" precision="FP16">
					<dim>1</dim>
					<dim>96</dim>
					<dim>26</dim>
					<dim>26</dim>
				</port>
				<port id="1" precision="FP16">
					<dim>1</dim>
					<dim>1</dim>
					<dim>1</dim>
					<dim>1</dim>
				</port>
			</input>
			<output>
				<port id="2" precision="FP16" names="Add_20">
					<dim>1</dim>
					<dim>96</dim>
					<dim>26</dim>
					<dim>26</dim>
				</port>
			</output>
		</layer>
		<layer id="247" name="Clip_12" type="Clamp" version="opset1">
			<data min="0" max="6"/>
			<input>
				<port id="0" precision="FP16">
					<dim>1</dim>
					<dim>96</dim>
					<dim>26</dim>
					<dim>26</dim>
				</port>
			</input>
			<output>
				<port id="1" precision="FP16" names="Clip_12">
					<dim>1</dim>
					<dim>96</dim>
					<dim>26</dim>
					<dim>26</dim>
				</port>
			</output>
		</layer>
		<layer id="248" name="Mul_16" type="Multiply" version="opset1">
			<data auto_broadcast="numpy"/>
			<input>
				<port id="0" precision="FP16">
					<dim>1</dim>
					<dim>96</dim>
					<dim>26</dim>
					<dim>26</dim>
				</port>
				<port id="1" precision="FP16">
					<dim>1</dim>
					<dim>96</dim>
					<dim>26</dim>
					<dim>26</dim>
				</port>
			</input>
			<output>
				<port id="2" precision="FP16" names="Mul_16">
					<dim>1</dim>
					<dim>96</dim>
					<dim>26</dim>
					<dim>26</dim>
				</port>
			</output>
		</layer>
		<layer id="249" name="Constant_054476" type="Const" version="opset1">
			<data element_type="f16" shape="1, 1, 1, 1" offset="1358" size="2"/>
			<output>
				<port id="0" precision="FP16" names="Constant_0">
					<dim>1</dim>
					<dim>1</dim>
					<dim>1</dim>
					<dim>1</dim>
				</port>
			</output>
		</layer>
		<layer id="250" name="Div_12" type="Multiply" version="opset1">
			<data auto_broadcast="numpy"/>
			<input>
				<port id="0" precision="FP16">
					<dim>1</dim>
					<dim>96</dim>
					<dim>26</dim>
					<dim>26</dim>
				</port>
				<port id="1" precision="FP16">
					<dim>1</dim>
					<dim>1</dim>
					<dim>1</dim>
					<dim>1</dim>
				</port>
			</input>
			<output>
				<port id="2" precision="FP16" names="batch_norm_18.tmp_4">
					<dim>1</dim>
					<dim>96</dim>
					<dim>26</dim>
					<dim>26</dim>
				</port>
			</output>
		</layer>
		<layer id="251" name="Concat_5" type="Concat" version="opset1">
			<data axis="1"/>
			<input>
				<port id="0" precision="FP16">
					<dim>1</dim>
					<dim>96</dim>
					<dim>26</dim>
					<dim>26</dim>
				</port>
				<port id="1" precision="FP16">
					<dim>1</dim>
					<dim>96</dim>
					<dim>26</dim>
					<dim>26</dim>
				</port>
			</input>
			<output>
				<port id="2" precision="FP16" names="concat_5.tmp_0">
					<dim>1</dim>
					<dim>192</dim>
					<dim>26</dim>
					<dim>26</dim>
				</port>
			</output>
		</layer>
		<layer id="252" name="3859" type="Const" version="opset1">
			<data element_type="f16" shape="192, 1, 1, 3, 3" offset="96840" size="3456"/>
			<output>
				<port id="0" precision="FP16" names="3859">
					<dim>192</dim>
					<dim>1</dim>
					<dim>1</dim>
					<dim>3</dim>
					<dim>3</dim>
				</port>
			</output>
		</layer>
		<layer id="253" name="Conv_27/WithoutBiases" type="GroupConvolution" version="opset1">
			<data strides="1, 1" pads_begin="1, 1" pads_end="1, 1" dilations="1, 1" auto_pad="explicit"/>
			<input>
				<port id="0" precision="FP16">
					<dim>1</dim>
					<dim>192</dim>
					<dim>26</dim>
					<dim>26</dim>
				</port>
				<port id="1" precision="FP16">
					<dim>192</dim>
					<dim>1</dim>
					<dim>1</dim>
					<dim>3</dim>
					<dim>3</dim>
				</port>
			</input>
			<output>
				<port id="2" precision="FP16">
					<dim>1</dim>
					<dim>192</dim>
					<dim>26</dim>
					<dim>26</dim>
				</port>
			</output>
		</layer>
		<layer id="254" name="Conv_27/Dims13073" type="Const" version="opset1">
			<data element_type="f16" shape="1, 192, 1, 1" offset="100296" size="384"/>
			<output>
				<port id="0" precision="FP16">
					<dim>1</dim>
					<dim>192</dim>
					<dim>1</dim>
					<dim>1</dim>
				</port>
			</output>
		</layer>
		<layer id="255" name="Conv_27" type="Add" version="opset1">
			<data auto_broadcast="numpy"/>
			<input>
				<port id="0" precision="FP16">
					<dim>1</dim>
					<dim>192</dim>
					<dim>26</dim>
					<dim>26</dim>
				</port>
				<port id="1" precision="FP16">
					<dim>1</dim>
					<dim>192</dim>
					<dim>1</dim>
					<dim>1</dim>
				</port>
			</input>
			<output>
				<port id="2" precision="FP16" names="depthwise_conv2d_7.tmp_0">
					<dim>1</dim>
					<dim>192</dim>
					<dim>26</dim>
					<dim>26</dim>
				</port>
			</output>
		</layer>
		<layer id="256" name="Constant_153591" type="Const" version="opset1">
			<data element_type="f16" shape="1, 1, 1, 1" offset="1356" size="2"/>
			<output>
				<port id="0" precision="FP16" names="Constant_1">
					<dim>1</dim>
					<dim>1</dim>
					<dim>1</dim>
					<dim>1</dim>
				</port>
			</output>
		</layer>
		<layer id="257" name="Add_21" type="Add" version="opset1">
			<data auto_broadcast="numpy"/>
			<input>
				<port id="0" precision="FP16">
					<dim>1</dim>
					<dim>192</dim>
					<dim>26</dim>
					<dim>26</dim>
				</port>
				<port id="1" precision="FP16">
					<dim>1</dim>
					<dim>1</dim>
					<dim>1</dim>
					<dim>1</dim>
				</port>
			</input>
			<output>
				<port id="2" precision="FP16" names="Add_21">
					<dim>1</dim>
					<dim>192</dim>
					<dim>26</dim>
					<dim>26</dim>
				</port>
			</output>
		</layer>
		<layer id="258" name="Clip_13" type="Clamp" version="opset1">
			<data min="0" max="6"/>
			<input>
				<port id="0" precision="FP16">
					<dim>1</dim>
					<dim>192</dim>
					<dim>26</dim>
					<dim>26</dim>
				</port>
			</input>
			<output>
				<port id="1" precision="FP16" names="Clip_13">
					<dim>1</dim>
					<dim>192</dim>
					<dim>26</dim>
					<dim>26</dim>
				</port>
			</output>
		</layer>
		<layer id="259" name="Mul_17" type="Multiply" version="opset1">
			<data auto_broadcast="numpy"/>
			<input>
				<port id="0" precision="FP16">
					<dim>1</dim>
					<dim>192</dim>
					<dim>26</dim>
					<dim>26</dim>
				</port>
				<port id="1" precision="FP16">
					<dim>1</dim>
					<dim>192</dim>
					<dim>26</dim>
					<dim>26</dim>
				</port>
			</input>
			<output>
				<port id="2" precision="FP16" names="batch_norm_19.tmp_4">
					<dim>1</dim>
					<dim>192</dim>
					<dim>26</dim>
					<dim>26</dim>
				</port>
			</output>
		</layer>
		<layer id="260" name="Div_13_copy" type="Const" version="opset1">
			<data element_type="f16" shape="192, 192, 1, 1" offset="100680" size="73728"/>
			<output>
				<port id="0" precision="FP16" names="3863">
					<dim>192</dim>
					<dim>192</dim>
					<dim>1</dim>
					<dim>1</dim>
				</port>
			</output>
		</layer>
		<layer id="261" name="Conv_28/WithoutBiases" type="Convolution" version="opset1">
			<data strides="1, 1" dilations="1, 1" pads_begin="0, 0" pads_end="0, 0" auto_pad="explicit"/>
			<input>
				<port id="0" precision="FP16">
					<dim>1</dim>
					<dim>192</dim>
					<dim>26</dim>
					<dim>26</dim>
				</port>
				<port id="1" precision="FP16">
					<dim>192</dim>
					<dim>192</dim>
					<dim>1</dim>
					<dim>1</dim>
				</port>
			</input>
			<output>
				<port id="2" precision="FP16">
					<dim>1</dim>
					<dim>192</dim>
					<dim>26</dim>
					<dim>26</dim>
				</port>
			</output>
		</layer>
		<layer id="262" name="Conv_28/Dims12815" type="Const" version="opset1">
			<data element_type="f16" shape="1, 192, 1, 1" offset="174408" size="384"/>
			<output>
				<port id="0" precision="FP16">
					<dim>1</dim>
					<dim>192</dim>
					<dim>1</dim>
					<dim>1</dim>
				</port>
			</output>
		</layer>
		<layer id="263" name="Conv_28" type="Add" version="opset1">
			<data auto_broadcast="numpy"/>
			<input>
				<port id="0" precision="FP16">
					<dim>1</dim>
					<dim>192</dim>
					<dim>26</dim>
					<dim>26</dim>
				</port>
				<port id="1" precision="FP16">
					<dim>1</dim>
					<dim>192</dim>
					<dim>1</dim>
					<dim>1</dim>
				</port>
			</input>
			<output>
				<port id="2" precision="FP16" names="conv2d_155.tmp_0">
					<dim>1</dim>
					<dim>192</dim>
					<dim>26</dim>
					<dim>26</dim>
				</port>
			</output>
		</layer>
		<layer id="264" name="Constant_154074" type="Const" version="opset1">
			<data element_type="f16" shape="1, 1, 1, 1" offset="1356" size="2"/>
			<output>
				<port id="0" precision="FP16" names="Constant_1">
					<dim>1</dim>
					<dim>1</dim>
					<dim>1</dim>
					<dim>1</dim>
				</port>
			</output>
		</layer>
		<layer id="265" name="Add_22" type="Add" version="opset1">
			<data auto_broadcast="numpy"/>
			<input>
				<port id="0" precision="FP16">
					<dim>1</dim>
					<dim>192</dim>
					<dim>26</dim>
					<dim>26</dim>
				</port>
				<port id="1" precision="FP16">
					<dim>1</dim>
					<dim>1</dim>
					<dim>1</dim>
					<dim>1</dim>
				</port>
			</input>
			<output>
				<port id="2" precision="FP16" names="Add_22">
					<dim>1</dim>
					<dim>192</dim>
					<dim>26</dim>
					<dim>26</dim>
				</port>
			</output>
		</layer>
		<layer id="266" name="Clip_14" type="Clamp" version="opset1">
			<data min="0" max="6"/>
			<input>
				<port id="0" precision="FP16">
					<dim>1</dim>
					<dim>192</dim>
					<dim>26</dim>
					<dim>26</dim>
				</port>
			</input>
			<output>
				<port id="1" precision="FP16" names="Clip_14">
					<dim>1</dim>
					<dim>192</dim>
					<dim>26</dim>
					<dim>26</dim>
				</port>
			</output>
		</layer>
		<layer id="267" name="Mul_18" type="Multiply" version="opset1">
			<data auto_broadcast="numpy"/>
			<input>
				<port id="0" precision="FP16">
					<dim>1</dim>
					<dim>192</dim>
					<dim>26</dim>
					<dim>26</dim>
				</port>
				<port id="1" precision="FP16">
					<dim>1</dim>
					<dim>192</dim>
					<dim>26</dim>
					<dim>26</dim>
				</port>
			</input>
			<output>
				<port id="2" precision="FP16" names="Mul_18">
					<dim>1</dim>
					<dim>192</dim>
					<dim>26</dim>
					<dim>26</dim>
				</port>
			</output>
		</layer>
		<layer id="268" name="Constant_053006" type="Const" version="opset1">
			<data element_type="f16" shape="1, 1, 1, 1" offset="1358" size="2"/>
			<output>
				<port id="0" precision="FP16" names="Constant_0">
					<dim>1</dim>
					<dim>1</dim>
					<dim>1</dim>
					<dim>1</dim>
				</port>
			</output>
		</layer>
		<layer id="269" name="Div_14" type="Multiply" version="opset1">
			<data auto_broadcast="numpy"/>
			<input>
				<port id="0" precision="FP16">
					<dim>1</dim>
					<dim>192</dim>
					<dim>26</dim>
					<dim>26</dim>
				</port>
				<port id="1" precision="FP16">
					<dim>1</dim>
					<dim>1</dim>
					<dim>1</dim>
					<dim>1</dim>
				</port>
			</input>
			<output>
				<port id="2" precision="FP16" names="batch_norm_20.tmp_4">
					<dim>1</dim>
					<dim>192</dim>
					<dim>26</dim>
					<dim>26</dim>
				</port>
			</output>
		</layer>
		<layer id="270" name="Split_2/VariadicSplit_input_port_1/value" type="Const" version="opset1">
			<data element_type="i64" shape="" offset="7336" size="8"/>
			<output>
				<port id="0" precision="I64"/>
			</output>
		</layer>
		<layer id="271" name="Split_2/VariadicSplit_input_port_2/value" type="Const" version="opset1">
			<data element_type="i64" shape="2" offset="174792" size="16"/>
			<output>
				<port id="0" precision="I64">
					<dim>2</dim>
				</port>
			</output>
		</layer>
		<layer id="272" name="Split_2/VariadicSplit" type="VariadicSplit" version="opset1">
			<input>
				<port id="0" precision="FP16">
					<dim>1</dim>
					<dim>192</dim>
					<dim>26</dim>
					<dim>26</dim>
				</port>
				<port id="1" precision="I64"/>
				<port id="2" precision="I64">
					<dim>2</dim>
				</port>
			</input>
			<output>
				<port id="3" precision="FP16" names="split_2.tmp_0">
					<dim>1</dim>
					<dim>96</dim>
					<dim>26</dim>
					<dim>26</dim>
				</port>
				<port id="4" precision="FP16" names="split_2.tmp_1">
					<dim>1</dim>
					<dim>96</dim>
					<dim>26</dim>
					<dim>26</dim>
				</port>
			</output>
		</layer>
		<layer id="273" name="3867" type="Const" version="opset1">
			<data element_type="f16" shape="60, 96, 1, 1" offset="174808" size="11520"/>
			<output>
				<port id="0" precision="FP16" names="3867">
					<dim>60</dim>
					<dim>96</dim>
					<dim>1</dim>
					<dim>1</dim>
				</port>
			</output>
		</layer>
		<layer id="274" name="Conv_29/WithoutBiases" type="Convolution" version="opset1">
			<data strides="1, 1" dilations="1, 1" pads_begin="0, 0" pads_end="0, 0" auto_pad="explicit"/>
			<input>
				<port id="0" precision="FP16">
					<dim>1</dim>
					<dim>96</dim>
					<dim>26</dim>
					<dim>26</dim>
				</port>
				<port id="1" precision="FP16">
					<dim>60</dim>
					<dim>96</dim>
					<dim>1</dim>
					<dim>1</dim>
				</port>
			</input>
			<output>
				<port id="2" precision="FP16">
					<dim>1</dim>
					<dim>60</dim>
					<dim>26</dim>
					<dim>26</dim>
				</port>
			</output>
		</layer>
		<layer id="275" name="Conv_29/Dims13397" type="Const" version="opset1">
			<data element_type="f16" shape="1, 60, 1, 1" offset="186328" size="120"/>
			<output>
				<port id="0" precision="FP16">
					<dim>1</dim>
					<dim>60</dim>
					<dim>1</dim>
					<dim>1</dim>
				</port>
			</output>
		</layer>
		<layer id="276" name="Conv_29" type="Add" version="opset1">
			<data auto_broadcast="numpy"/>
			<input>
				<port id="0" precision="FP16">
					<dim>1</dim>
					<dim>60</dim>
					<dim>26</dim>
					<dim>26</dim>
				</port>
				<port id="1" precision="FP16">
					<dim>1</dim>
					<dim>60</dim>
					<dim>1</dim>
					<dim>1</dim>
				</port>
			</input>
			<output>
				<port id="2" precision="FP16" names="conv2d_156.tmp_0">
					<dim>1</dim>
					<dim>60</dim>
					<dim>26</dim>
					<dim>26</dim>
				</port>
			</output>
		</layer>
		<layer id="277" name="Constant_154269" type="Const" version="opset1">
			<data element_type="f16" shape="1, 1, 1, 1" offset="1356" size="2"/>
			<output>
				<port id="0" precision="FP16" names="Constant_1">
					<dim>1</dim>
					<dim>1</dim>
					<dim>1</dim>
					<dim>1</dim>
				</port>
			</output>
		</layer>
		<layer id="278" name="Add_23" type="Add" version="opset1">
			<data auto_broadcast="numpy"/>
			<input>
				<port id="0" precision="FP16">
					<dim>1</dim>
					<dim>60</dim>
					<dim>26</dim>
					<dim>26</dim>
				</port>
				<port id="1" precision="FP16">
					<dim>1</dim>
					<dim>1</dim>
					<dim>1</dim>
					<dim>1</dim>
				</port>
			</input>
			<output>
				<port id="2" precision="FP16" names="Add_23">
					<dim>1</dim>
					<dim>60</dim>
					<dim>26</dim>
					<dim>26</dim>
				</port>
			</output>
		</layer>
		<layer id="279" name="Clip_15" type="Clamp" version="opset1">
			<data min="0" max="6"/>
			<input>
				<port id="0" precision="FP16">
					<dim>1</dim>
					<dim>60</dim>
					<dim>26</dim>
					<dim>26</dim>
				</port>
			</input>
			<output>
				<port id="1" precision="FP16" names="Clip_15">
					<dim>1</dim>
					<dim>60</dim>
					<dim>26</dim>
					<dim>26</dim>
				</port>
			</output>
		</layer>
		<layer id="280" name="Mul_19" type="Multiply" version="opset1">
			<data auto_broadcast="numpy"/>
			<input>
				<port id="0" precision="FP16">
					<dim>1</dim>
					<dim>60</dim>
					<dim>26</dim>
					<dim>26</dim>
				</port>
				<port id="1" precision="FP16">
					<dim>1</dim>
					<dim>60</dim>
					<dim>26</dim>
					<dim>26</dim>
				</port>
			</input>
			<output>
				<port id="2" precision="FP16" names="Mul_19">
					<dim>1</dim>
					<dim>60</dim>
					<dim>26</dim>
					<dim>26</dim>
				</port>
			</output>
		</layer>
		<layer id="281" name="Constant_053780" type="Const" version="opset1">
			<data element_type="f16" shape="1, 1, 1, 1" offset="1358" size="2"/>
			<output>
				<port id="0" precision="FP16" names="Constant_0">
					<dim>1</dim>
					<dim>1</dim>
					<dim>1</dim>
					<dim>1</dim>
				</port>
			</output>
		</layer>
		<layer id="282" name="Div_15" type="Multiply" version="opset1">
			<data auto_broadcast="numpy"/>
			<input>
				<port id="0" precision="FP16">
					<dim>1</dim>
					<dim>60</dim>
					<dim>26</dim>
					<dim>26</dim>
				</port>
				<port id="1" precision="FP16">
					<dim>1</dim>
					<dim>1</dim>
					<dim>1</dim>
					<dim>1</dim>
				</port>
			</input>
			<output>
				<port id="2" precision="FP16" names="batch_norm_21.tmp_4">
					<dim>1</dim>
					<dim>60</dim>
					<dim>26</dim>
					<dim>26</dim>
				</port>
			</output>
		</layer>
		<layer id="283" name="3871" type="Const" version="opset1">
			<data element_type="f16" shape="60, 1, 1, 3, 3" offset="186448" size="1080"/>
			<output>
				<port id="0" precision="FP16" names="3871">
					<dim>60</dim>
					<dim>1</dim>
					<dim>1</dim>
					<dim>3</dim>
					<dim>3</dim>
				</port>
			</output>
		</layer>
		<layer id="284" name="Conv_30/WithoutBiases" type="GroupConvolution" version="opset1">
			<data strides="1, 1" pads_begin="1, 1" pads_end="1, 1" dilations="1, 1" auto_pad="explicit"/>
			<input>
				<port id="0" precision="FP16">
					<dim>1</dim>
					<dim>60</dim>
					<dim>26</dim>
					<dim>26</dim>
				</port>
				<port id="1" precision="FP16">
					<dim>60</dim>
					<dim>1</dim>
					<dim>1</dim>
					<dim>3</dim>
					<dim>3</dim>
				</port>
			</input>
			<output>
				<port id="2" precision="FP16">
					<dim>1</dim>
					<dim>60</dim>
					<dim>26</dim>
					<dim>26</dim>
				</port>
			</output>
		</layer>
		<layer id="285" name="Conv_30/Dims12767" type="Const" version="opset1">
			<data element_type="f16" shape="1, 60, 1, 1" offset="187528" size="120"/>
			<output>
				<port id="0" precision="FP16">
					<dim>1</dim>
					<dim>60</dim>
					<dim>1</dim>
					<dim>1</dim>
				</port>
			</output>
		</layer>
		<layer id="286" name="Conv_30" type="Add" version="opset1">
			<data auto_broadcast="numpy"/>
			<input>
				<port id="0" precision="FP16">
					<dim>1</dim>
					<dim>60</dim>
					<dim>26</dim>
					<dim>26</dim>
				</port>
				<port id="1" precision="FP16">
					<dim>1</dim>
					<dim>60</dim>
					<dim>1</dim>
					<dim>1</dim>
				</port>
			</input>
			<output>
				<port id="2" precision="FP16" names="depthwise_conv2d_8.tmp_0">
					<dim>1</dim>
					<dim>60</dim>
					<dim>26</dim>
					<dim>26</dim>
				</port>
			</output>
		</layer>
		<layer id="287" name="Concat_6" type="Concat" version="opset1">
			<data axis="1"/>
			<input>
				<port id="0" precision="FP16">
					<dim>1</dim>
					<dim>60</dim>
					<dim>26</dim>
					<dim>26</dim>
				</port>
				<port id="1" precision="FP16">
					<dim>1</dim>
					<dim>60</dim>
					<dim>26</dim>
					<dim>26</dim>
				</port>
			</input>
			<output>
				<port id="2" precision="FP16" names="concat_6.tmp_0">
					<dim>1</dim>
					<dim>120</dim>
					<dim>26</dim>
					<dim>26</dim>
				</port>
			</output>
		</layer>
		<layer id="288" name="1037" type="Const" version="opset1">
			<data element_type="i64" shape="" offset="7320" size="8"/>
			<output>
				<port id="0" precision="I64"/>
			</output>
		</layer>
		<layer id="289" name="GlobalAveragePool_4/input_rank/shape_of" type="ShapeOf" version="opset3">
			<data output_type="i64"/>
			<input>
				<port id="0" precision="FP16">
					<dim>1</dim>
					<dim>120</dim>
					<dim>26</dim>
					<dim>26</dim>
				</port>
			</input>
			<output>
				<port id="1" precision="I64">
					<dim>4</dim>
				</port>
			</output>
		</layer>
		<layer id="290" name="GlobalAveragePool_4/input_rank/rank_of" type="ShapeOf" version="opset3">
			<data output_type="i64"/>
			<input>
				<port id="0" precision="I64">
					<dim>4</dim>
				</port>
			</input>
			<output>
				<port id="1" precision="I64">
					<dim>1</dim>
				</port>
			</output>
		</layer>
		<layer id="291" name="GlobalAveragePool_4/input_rank/0d_rank_of/value" type="Const" version="opset1">
			<data element_type="i64" shape="1" offset="7328" size="8"/>
			<output>
				<port id="0" precision="I64">
					<dim>1</dim>
				</port>
			</output>
		</layer>
		<layer id="292" name="GlobalAveragePool_4/input_rank" type="Squeeze" version="opset1">
			<input>
				<port id="0" precision="I64">
					<dim>1</dim>
				</port>
				<port id="1" precision="I64">
					<dim>1</dim>
				</port>
			</input>
			<output>
				<port id="2" precision="I64"/>
			</output>
		</layer>
		<layer id="293" name="1039" type="Const" version="opset1">
			<data element_type="i64" shape="" offset="7336" size="8"/>
			<output>
				<port id="0" precision="I64"/>
			</output>
		</layer>
		<layer id="294" name="GlobalAveragePool_4/global_pooling_reduce_axis" type="Range" version="opset4">
			<data output_type="i64"/>
			<input>
				<port id="0" precision="I64"/>
				<port id="1" precision="I64"/>
				<port id="2" precision="I64"/>
			</input>
			<output>
				<port id="3" precision="I64">
					<dim>2</dim>
				</port>
			</output>
		</layer>
		<layer id="295" name="GlobalAveragePool_4/reduce" type="ReduceMean" version="opset1">
			<data keep_dims="true"/>
			<input>
				<port id="0" precision="FP16">
					<dim>1</dim>
					<dim>120</dim>
					<dim>26</dim>
					<dim>26</dim>
				</port>
				<port id="1" precision="I64">
					<dim>2</dim>
				</port>
			</input>
			<output>
				<port id="2" precision="FP16" names="pool2d_5.tmp_0">
					<dim>1</dim>
					<dim>120</dim>
					<dim>1</dim>
					<dim>1</dim>
				</port>
			</output>
		</layer>
		<layer id="296" name="conv2d_31.w_0" type="Const" version="opset1">
			<data element_type="f16" shape="30, 120, 1, 1" offset="187648" size="7200"/>
			<output>
				<port id="0" precision="FP16" names="conv2d_31.w_0">
					<dim>30</dim>
					<dim>120</dim>
					<dim>1</dim>
					<dim>1</dim>
				</port>
			</output>
		</layer>
		<layer id="297" name="Conv_31/WithoutBiases" type="Convolution" version="opset1">
			<data strides="1, 1" dilations="1, 1" pads_begin="0, 0" pads_end="0, 0" auto_pad="explicit"/>
			<input>
				<port id="0" precision="FP16">
					<dim>1</dim>
					<dim>120</dim>
					<dim>1</dim>
					<dim>1</dim>
				</port>
				<port id="1" precision="FP16">
					<dim>30</dim>
					<dim>120</dim>
					<dim>1</dim>
					<dim>1</dim>
				</port>
			</input>
			<output>
				<port id="2" precision="FP16">
					<dim>1</dim>
					<dim>30</dim>
					<dim>1</dim>
					<dim>1</dim>
				</port>
			</output>
		</layer>
		<layer id="298" name="Conv_31/Dims12797" type="Const" version="opset1">
			<data element_type="f16" shape="1, 30, 1, 1" offset="194848" size="60"/>
			<output>
				<port id="0" precision="FP16">
					<dim>1</dim>
					<dim>30</dim>
					<dim>1</dim>
					<dim>1</dim>
				</port>
			</output>
		</layer>
		<layer id="299" name="Conv_31" type="Add" version="opset1">
			<data auto_broadcast="numpy"/>
			<input>
				<port id="0" precision="FP16">
					<dim>1</dim>
					<dim>30</dim>
					<dim>1</dim>
					<dim>1</dim>
				</port>
				<port id="1" precision="FP16">
					<dim>1</dim>
					<dim>30</dim>
					<dim>1</dim>
					<dim>1</dim>
				</port>
			</input>
			<output>
				<port id="2" precision="FP16" names="conv2d_157.tmp_0">
					<dim>1</dim>
					<dim>30</dim>
					<dim>1</dim>
					<dim>1</dim>
				</port>
			</output>
		</layer>
		<layer id="300" name="Relu_4" type="ReLU" version="opset1">
			<input>
				<port id="0" precision="FP16">
					<dim>1</dim>
					<dim>30</dim>
					<dim>1</dim>
					<dim>1</dim>
				</port>
			</input>
			<output>
				<port id="1" precision="FP16" names="relu_4.tmp_0">
					<dim>1</dim>
					<dim>30</dim>
					<dim>1</dim>
					<dim>1</dim>
				</port>
			</output>
		</layer>
		<layer id="301" name="conv2d_32.w_0" type="Const" version="opset1">
			<data element_type="f16" shape="120, 30, 1, 1" offset="194908" size="7200"/>
			<output>
				<port id="0" precision="FP16" names="conv2d_32.w_0">
					<dim>120</dim>
					<dim>30</dim>
					<dim>1</dim>
					<dim>1</dim>
				</port>
			</output>
		</layer>
		<layer id="302" name="Conv_32/WithoutBiases" type="Convolution" version="opset1">
			<data strides="1, 1" dilations="1, 1" pads_begin="0, 0" pads_end="0, 0" auto_pad="explicit"/>
			<input>
				<port id="0" precision="FP16">
					<dim>1</dim>
					<dim>30</dim>
					<dim>1</dim>
					<dim>1</dim>
				</port>
				<port id="1" precision="FP16">
					<dim>120</dim>
					<dim>30</dim>
					<dim>1</dim>
					<dim>1</dim>
				</port>
			</input>
			<output>
				<port id="2" precision="FP16">
					<dim>1</dim>
					<dim>120</dim>
					<dim>1</dim>
					<dim>1</dim>
				</port>
			</output>
		</layer>
		<layer id="303" name="Conv_32/Dims13331" type="Const" version="opset1">
			<data element_type="f16" shape="1, 120, 1, 1" offset="202108" size="240"/>
			<output>
				<port id="0" precision="FP16">
					<dim>1</dim>
					<dim>120</dim>
					<dim>1</dim>
					<dim>1</dim>
				</port>
			</output>
		</layer>
		<layer id="304" name="Conv_32" type="Add" version="opset1">
			<data auto_broadcast="numpy"/>
			<input>
				<port id="0" precision="FP16">
					<dim>1</dim>
					<dim>120</dim>
					<dim>1</dim>
					<dim>1</dim>
				</port>
				<port id="1" precision="FP16">
					<dim>1</dim>
					<dim>120</dim>
					<dim>1</dim>
					<dim>1</dim>
				</port>
			</input>
			<output>
				<port id="2" precision="FP16" names="conv2d_158.tmp_0">
					<dim>1</dim>
					<dim>120</dim>
					<dim>1</dim>
					<dim>1</dim>
				</port>
			</output>
		</layer>
		<layer id="305" name="HardSigmoid_4/HardSigmoid__input_port_1/value" type="Const" version="opset1">
			<data element_type="f16" shape="" offset="1358" size="2"/>
			<output>
				<port id="0" precision="FP16"/>
			</output>
		</layer>
		<layer id="306" name="HardSigmoid_4/HardSigmoid__input_port_2/value" type="Const" version="opset1">
			<data element_type="f16" shape="" offset="9390" size="2"/>
			<output>
				<port id="0" precision="FP16"/>
			</output>
		</layer>
		<layer id="307" name="HardSigmoid_4/HardSigmoid_" type="HardSigmoid" version="opset1">
			<input>
				<port id="0" precision="FP16">
					<dim>1</dim>
					<dim>120</dim>
					<dim>1</dim>
					<dim>1</dim>
				</port>
				<port id="1" precision="FP16"/>
				<port id="2" precision="FP16"/>
			</input>
			<output>
				<port id="3" precision="FP16" names="hardsigmoid_4.tmp_0">
					<dim>1</dim>
					<dim>120</dim>
					<dim>1</dim>
					<dim>1</dim>
				</port>
			</output>
		</layer>
		<layer id="308" name="Mul_20" type="Multiply" version="opset1">
			<data auto_broadcast="numpy"/>
			<input>
				<port id="0" precision="FP16">
					<dim>1</dim>
					<dim>120</dim>
					<dim>26</dim>
					<dim>26</dim>
				</port>
				<port id="1" precision="FP16">
					<dim>1</dim>
					<dim>120</dim>
					<dim>1</dim>
					<dim>1</dim>
				</port>
			</input>
			<output>
				<port id="2" precision="FP16" names="elementwise_mul_4">
					<dim>1</dim>
					<dim>120</dim>
					<dim>26</dim>
					<dim>26</dim>
				</port>
			</output>
		</layer>
		<layer id="309" name="3875" type="Const" version="opset1">
			<data element_type="f16" shape="96, 120, 1, 1" offset="202348" size="23040"/>
			<output>
				<port id="0" precision="FP16" names="3875">
					<dim>96</dim>
					<dim>120</dim>
					<dim>1</dim>
					<dim>1</dim>
				</port>
			</output>
		</layer>
		<layer id="310" name="Conv_33/WithoutBiases" type="Convolution" version="opset1">
			<data strides="1, 1" dilations="1, 1" pads_begin="0, 0" pads_end="0, 0" auto_pad="explicit"/>
			<input>
				<port id="0" precision="FP16">
					<dim>1</dim>
					<dim>120</dim>
					<dim>26</dim>
					<dim>26</dim>
				</port>
				<port id="1" precision="FP16">
					<dim>96</dim>
					<dim>120</dim>
					<dim>1</dim>
					<dim>1</dim>
				</port>
			</input>
			<output>
				<port id="2" precision="FP16">
					<dim>1</dim>
					<dim>96</dim>
					<dim>26</dim>
					<dim>26</dim>
				</port>
			</output>
		</layer>
		<layer id="311" name="Conv_33/Dims13007" type="Const" version="opset1">
			<data element_type="f16" shape="1, 96, 1, 1" offset="225388" size="192"/>
			<output>
				<port id="0" precision="FP16">
					<dim>1</dim>
					<dim>96</dim>
					<dim>1</dim>
					<dim>1</dim>
				</port>
			</output>
		</layer>
		<layer id="312" name="Conv_33" type="Add" version="opset1">
			<data auto_broadcast="numpy"/>
			<input>
				<port id="0" precision="FP16">
					<dim>1</dim>
					<dim>96</dim>
					<dim>26</dim>
					<dim>26</dim>
				</port>
				<port id="1" precision="FP16">
					<dim>1</dim>
					<dim>96</dim>
					<dim>1</dim>
					<dim>1</dim>
				</port>
			</input>
			<output>
				<port id="2" precision="FP16" names="conv2d_159.tmp_0">
					<dim>1</dim>
					<dim>96</dim>
					<dim>26</dim>
					<dim>26</dim>
				</port>
			</output>
		</layer>
		<layer id="313" name="Constant_153801" type="Const" version="opset1">
			<data element_type="f16" shape="1, 1, 1, 1" offset="1356" size="2"/>
			<output>
				<port id="0" precision="FP16" names="Constant_1">
					<dim>1</dim>
					<dim>1</dim>
					<dim>1</dim>
					<dim>1</dim>
				</port>
			</output>
		</layer>
		<layer id="314" name="Add_26" type="Add" version="opset1">
			<data auto_broadcast="numpy"/>
			<input>
				<port id="0" precision="FP16">
					<dim>1</dim>
					<dim>96</dim>
					<dim>26</dim>
					<dim>26</dim>
				</port>
				<port id="1" precision="FP16">
					<dim>1</dim>
					<dim>1</dim>
					<dim>1</dim>
					<dim>1</dim>
				</port>
			</input>
			<output>
				<port id="2" precision="FP16" names="Add_26">
					<dim>1</dim>
					<dim>96</dim>
					<dim>26</dim>
					<dim>26</dim>
				</port>
			</output>
		</layer>
		<layer id="315" name="Clip_16" type="Clamp" version="opset1">
			<data min="0" max="6"/>
			<input>
				<port id="0" precision="FP16">
					<dim>1</dim>
					<dim>96</dim>
					<dim>26</dim>
					<dim>26</dim>
				</port>
			</input>
			<output>
				<port id="1" precision="FP16" names="Clip_16">
					<dim>1</dim>
					<dim>96</dim>
					<dim>26</dim>
					<dim>26</dim>
				</port>
			</output>
		</layer>
		<layer id="316" name="Mul_21" type="Multiply" version="opset1">
			<data auto_broadcast="numpy"/>
			<input>
				<port id="0" precision="FP16">
					<dim>1</dim>
					<dim>96</dim>
					<dim>26</dim>
					<dim>26</dim>
				</port>
				<port id="1" precision="FP16">
					<dim>1</dim>
					<dim>96</dim>
					<dim>26</dim>
					<dim>26</dim>
				</port>
			</input>
			<output>
				<port id="2" precision="FP16" names="Mul_21">
					<dim>1</dim>
					<dim>96</dim>
					<dim>26</dim>
					<dim>26</dim>
				</port>
			</output>
		</layer>
		<layer id="317" name="Constant_054416" type="Const" version="opset1">
			<data element_type="f16" shape="1, 1, 1, 1" offset="1358" size="2"/>
			<output>
				<port id="0" precision="FP16" names="Constant_0">
					<dim>1</dim>
					<dim>1</dim>
					<dim>1</dim>
					<dim>1</dim>
				</port>
			</output>
		</layer>
		<layer id="318" name="Div_16" type="Multiply" version="opset1">
			<data auto_broadcast="numpy"/>
			<input>
				<port id="0" precision="FP16">
					<dim>1</dim>
					<dim>96</dim>
					<dim>26</dim>
					<dim>26</dim>
				</port>
				<port id="1" precision="FP16">
					<dim>1</dim>
					<dim>1</dim>
					<dim>1</dim>
					<dim>1</dim>
				</port>
			</input>
			<output>
				<port id="2" precision="FP16" names="batch_norm_23.tmp_4">
					<dim>1</dim>
					<dim>96</dim>
					<dim>26</dim>
					<dim>26</dim>
				</port>
			</output>
		</layer>
		<layer id="319" name="Concat_7" type="Concat" version="opset1">
			<data axis="1"/>
			<input>
				<port id="0" precision="FP16">
					<dim>1</dim>
					<dim>96</dim>
					<dim>26</dim>
					<dim>26</dim>
				</port>
				<port id="1" precision="FP16">
					<dim>1</dim>
					<dim>96</dim>
					<dim>26</dim>
					<dim>26</dim>
				</port>
			</input>
			<output>
				<port id="2" precision="FP16" names="concat_7.tmp_0">
					<dim>1</dim>
					<dim>192</dim>
					<dim>26</dim>
					<dim>26</dim>
				</port>
			</output>
		</layer>
		<layer id="320" name="Reshape_1541449" type="ShuffleChannels" version="opset3">
			<data axis="1" group="2"/>
			<input>
				<port id="0" precision="FP16">
					<dim>1</dim>
					<dim>192</dim>
					<dim>26</dim>
					<dim>26</dim>
				</port>
			</input>
			<output>
				<port id="1" precision="FP16" names="reshape2_5.tmp_0">
					<dim>1</dim>
					<dim>192</dim>
					<dim>26</dim>
					<dim>26</dim>
				</port>
			</output>
		</layer>
		<layer id="321" name="Split_3/VariadicSplit_input_port_1/value" type="Const" version="opset1">
			<data element_type="i64" shape="" offset="7336" size="8"/>
			<output>
				<port id="0" precision="I64"/>
			</output>
		</layer>
		<layer id="322" name="Split_3/VariadicSplit_input_port_2/value" type="Const" version="opset1">
			<data element_type="i64" shape="2" offset="174792" size="16"/>
			<output>
				<port id="0" precision="I64">
					<dim>2</dim>
				</port>
			</output>
		</layer>
		<layer id="323" name="Split_3/VariadicSplit" type="VariadicSplit" version="opset1">
			<input>
				<port id="0" precision="FP16">
					<dim>1</dim>
					<dim>192</dim>
					<dim>26</dim>
					<dim>26</dim>
				</port>
				<port id="1" precision="I64"/>
				<port id="2" precision="I64">
					<dim>2</dim>
				</port>
			</input>
			<output>
				<port id="3" precision="FP16" names="split_3.tmp_0">
					<dim>1</dim>
					<dim>96</dim>
					<dim>26</dim>
					<dim>26</dim>
				</port>
				<port id="4" precision="FP16" names="split_3.tmp_1">
					<dim>1</dim>
					<dim>96</dim>
					<dim>26</dim>
					<dim>26</dim>
				</port>
			</output>
		</layer>
		<layer id="324" name="3879" type="Const" version="opset1">
			<data element_type="f16" shape="48, 96, 1, 1" offset="225580" size="9216"/>
			<output>
				<port id="0" precision="FP16" names="3879">
					<dim>48</dim>
					<dim>96</dim>
					<dim>1</dim>
					<dim>1</dim>
				</port>
			</output>
		</layer>
		<layer id="325" name="Conv_34/WithoutBiases" type="Convolution" version="opset1">
			<data strides="1, 1" dilations="1, 1" pads_begin="0, 0" pads_end="0, 0" auto_pad="explicit"/>
			<input>
				<port id="0" precision="FP16">
					<dim>1</dim>
					<dim>96</dim>
					<dim>26</dim>
					<dim>26</dim>
				</port>
				<port id="1" precision="FP16">
					<dim>48</dim>
					<dim>96</dim>
					<dim>1</dim>
					<dim>1</dim>
				</port>
			</input>
			<output>
				<port id="2" precision="FP16">
					<dim>1</dim>
					<dim>48</dim>
					<dim>26</dim>
					<dim>26</dim>
				</port>
			</output>
		</layer>
		<layer id="326" name="Conv_34/Dims12989" type="Const" version="opset1">
			<data element_type="f16" shape="1, 48, 1, 1" offset="234796" size="96"/>
			<output>
				<port id="0" precision="FP16">
					<dim>1</dim>
					<dim>48</dim>
					<dim>1</dim>
					<dim>1</dim>
				</port>
			</output>
		</layer>
		<layer id="327" name="Conv_34" type="Add" version="opset1">
			<data auto_broadcast="numpy"/>
			<input>
				<port id="0" precision="FP16">
					<dim>1</dim>
					<dim>48</dim>
					<dim>26</dim>
					<dim>26</dim>
				</port>
				<port id="1" precision="FP16">
					<dim>1</dim>
					<dim>48</dim>
					<dim>1</dim>
					<dim>1</dim>
				</port>
			</input>
			<output>
				<port id="2" precision="FP16" names="conv2d_160.tmp_0">
					<dim>1</dim>
					<dim>48</dim>
					<dim>26</dim>
					<dim>26</dim>
				</port>
			</output>
		</layer>
		<layer id="328" name="Constant_153720" type="Const" version="opset1">
			<data element_type="f16" shape="1, 1, 1, 1" offset="1356" size="2"/>
			<output>
				<port id="0" precision="FP16" names="Constant_1">
					<dim>1</dim>
					<dim>1</dim>
					<dim>1</dim>
					<dim>1</dim>
				</port>
			</output>
		</layer>
		<layer id="329" name="Add_27" type="Add" version="opset1">
			<data auto_broadcast="numpy"/>
			<input>
				<port id="0" precision="FP16">
					<dim>1</dim>
					<dim>48</dim>
					<dim>26</dim>
					<dim>26</dim>
				</port>
				<port id="1" precision="FP16">
					<dim>1</dim>
					<dim>1</dim>
					<dim>1</dim>
					<dim>1</dim>
				</port>
			</input>
			<output>
				<port id="2" precision="FP16" names="Add_27">
					<dim>1</dim>
					<dim>48</dim>
					<dim>26</dim>
					<dim>26</dim>
				</port>
			</output>
		</layer>
		<layer id="330" name="Clip_17" type="Clamp" version="opset1">
			<data min="0" max="6"/>
			<input>
				<port id="0" precision="FP16">
					<dim>1</dim>
					<dim>48</dim>
					<dim>26</dim>
					<dim>26</dim>
				</port>
			</input>
			<output>
				<port id="1" precision="FP16" names="Clip_17">
					<dim>1</dim>
					<dim>48</dim>
					<dim>26</dim>
					<dim>26</dim>
				</port>
			</output>
		</layer>
		<layer id="331" name="Mul_22" type="Multiply" version="opset1">
			<data auto_broadcast="numpy"/>
			<input>
				<port id="0" precision="FP16">
					<dim>1</dim>
					<dim>48</dim>
					<dim>26</dim>
					<dim>26</dim>
				</port>
				<port id="1" precision="FP16">
					<dim>1</dim>
					<dim>48</dim>
					<dim>26</dim>
					<dim>26</dim>
				</port>
			</input>
			<output>
				<port id="2" precision="FP16" names="Mul_22">
					<dim>1</dim>
					<dim>48</dim>
					<dim>26</dim>
					<dim>26</dim>
				</port>
			</output>
		</layer>
		<layer id="332" name="Constant_0" type="Const" version="opset1">
			<data element_type="f16" shape="1, 1, 1, 1" offset="1358" size="2"/>
			<output>
				<port id="0" precision="FP16" names="Constant_0">
					<dim>1</dim>
					<dim>1</dim>
					<dim>1</dim>
					<dim>1</dim>
				</port>
			</output>
		</layer>
		<layer id="333" name="Div_17" type="Multiply" version="opset1">
			<data auto_broadcast="numpy"/>
			<input>
				<port id="0" precision="FP16">
					<dim>1</dim>
					<dim>48</dim>
					<dim>26</dim>
					<dim>26</dim>
				</port>
				<port id="1" precision="FP16">
					<dim>1</dim>
					<dim>1</dim>
					<dim>1</dim>
					<dim>1</dim>
				</port>
			</input>
			<output>
				<port id="2" precision="FP16" names="batch_norm_24.tmp_4">
					<dim>1</dim>
					<dim>48</dim>
					<dim>26</dim>
					<dim>26</dim>
				</port>
			</output>
		</layer>
		<layer id="334" name="3883" type="Const" version="opset1">
			<data element_type="f16" shape="48, 1, 1, 3, 3" offset="234892" size="864"/>
			<output>
				<port id="0" precision="FP16" names="3883">
					<dim>48</dim>
					<dim>1</dim>
					<dim>1</dim>
					<dim>3</dim>
					<dim>3</dim>
				</port>
			</output>
		</layer>
		<layer id="335" name="Conv_35/WithoutBiases" type="GroupConvolution" version="opset1">
			<data strides="1, 1" pads_begin="1, 1" pads_end="1, 1" dilations="1, 1" auto_pad="explicit"/>
			<input>
				<port id="0" precision="FP16">
					<dim>1</dim>
					<dim>48</dim>
					<dim>26</dim>
					<dim>26</dim>
				</port>
				<port id="1" precision="FP16">
					<dim>48</dim>
					<dim>1</dim>
					<dim>1</dim>
					<dim>3</dim>
					<dim>3</dim>
				</port>
			</input>
			<output>
				<port id="2" precision="FP16">
					<dim>1</dim>
					<dim>48</dim>
					<dim>26</dim>
					<dim>26</dim>
				</port>
			</output>
		</layer>
		<layer id="336" name="Conv_35/Dims13349" type="Const" version="opset1">
			<data element_type="f16" shape="1, 48, 1, 1" offset="235756" size="96"/>
			<output>
				<port id="0" precision="FP16">
					<dim>1</dim>
					<dim>48</dim>
					<dim>1</dim>
					<dim>1</dim>
				</port>
			</output>
		</layer>
		<layer id="337" name="Conv_35" type="Add" version="opset1">
			<data auto_broadcast="numpy"/>
			<input>
				<port id="0" precision="FP16">
					<dim>1</dim>
					<dim>48</dim>
					<dim>26</dim>
					<dim>26</dim>
				</port>
				<port id="1" precision="FP16">
					<dim>1</dim>
					<dim>48</dim>
					<dim>1</dim>
					<dim>1</dim>
				</port>
			</input>
			<output>
				<port id="2" precision="FP16" names="depthwise_conv2d_9.tmp_0">
					<dim>1</dim>
					<dim>48</dim>
					<dim>26</dim>
					<dim>26</dim>
				</port>
			</output>
		</layer>
		<layer id="338" name="Concat_8" type="Concat" version="opset1">
			<data axis="1"/>
			<input>
				<port id="0" precision="FP16">
					<dim>1</dim>
					<dim>48</dim>
					<dim>26</dim>
					<dim>26</dim>
				</port>
				<port id="1" precision="FP16">
					<dim>1</dim>
					<dim>48</dim>
					<dim>26</dim>
					<dim>26</dim>
				</port>
			</input>
			<output>
				<port id="2" precision="FP16" names="concat_8.tmp_0">
					<dim>1</dim>
					<dim>96</dim>
					<dim>26</dim>
					<dim>26</dim>
				</port>
			</output>
		</layer>
		<layer id="339" name="1042" type="Const" version="opset1">
			<data element_type="i64" shape="" offset="7320" size="8"/>
			<output>
				<port id="0" precision="I64"/>
			</output>
		</layer>
		<layer id="340" name="GlobalAveragePool_5/input_rank/shape_of" type="ShapeOf" version="opset3">
			<data output_type="i64"/>
			<input>
				<port id="0" precision="FP16">
					<dim>1</dim>
					<dim>96</dim>
					<dim>26</dim>
					<dim>26</dim>
				</port>
			</input>
			<output>
				<port id="1" precision="I64">
					<dim>4</dim>
				</port>
			</output>
		</layer>
		<layer id="341" name="GlobalAveragePool_5/input_rank/rank_of" type="ShapeOf" version="opset3">
			<data output_type="i64"/>
			<input>
				<port id="0" precision="I64">
					<dim>4</dim>
				</port>
			</input>
			<output>
				<port id="1" precision="I64">
					<dim>1</dim>
				</port>
			</output>
		</layer>
		<layer id="342" name="GlobalAveragePool_5/input_rank/0d_rank_of/value" type="Const" version="opset1">
			<data element_type="i64" shape="1" offset="7328" size="8"/>
			<output>
				<port id="0" precision="I64">
					<dim>1</dim>
				</port>
			</output>
		</layer>
		<layer id="343" name="GlobalAveragePool_5/input_rank" type="Squeeze" version="opset1">
			<input>
				<port id="0" precision="I64">
					<dim>1</dim>
				</port>
				<port id="1" precision="I64">
					<dim>1</dim>
				</port>
			</input>
			<output>
				<port id="2" precision="I64"/>
			</output>
		</layer>
		<layer id="344" name="1044" type="Const" version="opset1">
			<data element_type="i64" shape="" offset="7336" size="8"/>
			<output>
				<port id="0" precision="I64"/>
			</output>
		</layer>
		<layer id="345" name="GlobalAveragePool_5/global_pooling_reduce_axis" type="Range" version="opset4">
			<data output_type="i64"/>
			<input>
				<port id="0" precision="I64"/>
				<port id="1" precision="I64"/>
				<port id="2" precision="I64"/>
			</input>
			<output>
				<port id="3" precision="I64">
					<dim>2</dim>
				</port>
			</output>
		</layer>
		<layer id="346" name="GlobalAveragePool_5/reduce" type="ReduceMean" version="opset1">
			<data keep_dims="true"/>
			<input>
				<port id="0" precision="FP16">
					<dim>1</dim>
					<dim>96</dim>
					<dim>26</dim>
					<dim>26</dim>
				</port>
				<port id="1" precision="I64">
					<dim>2</dim>
				</port>
			</input>
			<output>
				<port id="2" precision="FP16" names="pool2d_6.tmp_0">
					<dim>1</dim>
					<dim>96</dim>
					<dim>1</dim>
					<dim>1</dim>
				</port>
			</output>
		</layer>
		<layer id="347" name="conv2d_36.w_0" type="Const" version="opset1">
			<data element_type="f16" shape="24, 96, 1, 1" offset="235852" size="4608"/>
			<output>
				<port id="0" precision="FP16" names="conv2d_36.w_0">
					<dim>24</dim>
					<dim>96</dim>
					<dim>1</dim>
					<dim>1</dim>
				</port>
			</output>
		</layer>
		<layer id="348" name="Conv_36/WithoutBiases" type="Convolution" version="opset1">
			<data strides="1, 1" dilations="1, 1" pads_begin="0, 0" pads_end="0, 0" auto_pad="explicit"/>
			<input>
				<port id="0" precision="FP16">
					<dim>1</dim>
					<dim>96</dim>
					<dim>1</dim>
					<dim>1</dim>
				</port>
				<port id="1" precision="FP16">
					<dim>24</dim>
					<dim>96</dim>
					<dim>1</dim>
					<dim>1</dim>
				</port>
			</input>
			<output>
				<port id="2" precision="FP16">
					<dim>1</dim>
					<dim>24</dim>
					<dim>1</dim>
					<dim>1</dim>
				</port>
			</output>
		</layer>
		<layer id="349" name="Conv_36/Dims13421" type="Const" version="opset1">
			<data element_type="f16" shape="1, 24, 1, 1" offset="240460" size="48"/>
			<output>
				<port id="0" precision="FP16">
					<dim>1</dim>
					<dim>24</dim>
					<dim>1</dim>
					<dim>1</dim>
				</port>
			</output>
		</layer>
		<layer id="350" name="Conv_36" type="Add" version="opset1">
			<data auto_broadcast="numpy"/>
			<input>
				<port id="0" precision="FP16">
					<dim>1</dim>
					<dim>24</dim>
					<dim>1</dim>
					<dim>1</dim>
				</port>
				<port id="1" precision="FP16">
					<dim>1</dim>
					<dim>24</dim>
					<dim>1</dim>
					<dim>1</dim>
				</port>
			</input>
			<output>
				<port id="2" precision="FP16" names="conv2d_161.tmp_0">
					<dim>1</dim>
					<dim>24</dim>
					<dim>1</dim>
					<dim>1</dim>
				</port>
			</output>
		</layer>
		<layer id="351" name="Relu_5" type="ReLU" version="opset1">
			<input>
				<port id="0" precision="FP16">
					<dim>1</dim>
					<dim>24</dim>
					<dim>1</dim>
					<dim>1</dim>
				</port>
			</input>
			<output>
				<port id="1" precision="FP16" names="relu_5.tmp_0">
					<dim>1</dim>
					<dim>24</dim>
					<dim>1</dim>
					<dim>1</dim>
				</port>
			</output>
		</layer>
		<layer id="352" name="conv2d_37.w_0" type="Const" version="opset1">
			<data element_type="f16" shape="96, 24, 1, 1" offset="240508" size="4608"/>
			<output>
				<port id="0" precision="FP16" names="conv2d_37.w_0">
					<dim>96</dim>
					<dim>24</dim>
					<dim>1</dim>
					<dim>1</dim>
				</port>
			</output>
		</layer>
		<layer id="353" name="Conv_37/WithoutBiases" type="Convolution" version="opset1">
			<data strides="1, 1" dilations="1, 1" pads_begin="0, 0" pads_end="0, 0" auto_pad="explicit"/>
			<input>
				<port id="0" precision="FP16">
					<dim>1</dim>
					<dim>24</dim>
					<dim>1</dim>
					<dim>1</dim>
				</port>
				<port id="1" precision="FP16">
					<dim>96</dim>
					<dim>24</dim>
					<dim>1</dim>
					<dim>1</dim>
				</port>
			</input>
			<output>
				<port id="2" precision="FP16">
					<dim>1</dim>
					<dim>96</dim>
					<dim>1</dim>
					<dim>1</dim>
				</port>
			</output>
		</layer>
		<layer id="354" name="Conv_37/Dims13325" type="Const" version="opset1">
			<data element_type="f16" shape="1, 96, 1, 1" offset="245116" size="192"/>
			<output>
				<port id="0" precision="FP16">
					<dim>1</dim>
					<dim>96</dim>
					<dim>1</dim>
					<dim>1</dim>
				</port>
			</output>
		</layer>
		<layer id="355" name="Conv_37" type="Add" version="opset1">
			<data auto_broadcast="numpy"/>
			<input>
				<port id="0" precision="FP16">
					<dim>1</dim>
					<dim>96</dim>
…
		<edge from-layer="677" from-port="2" to-layer="679" to-port="0"/>
		<edge from-layer="678" from-port="0" to-layer="679" to-port="1"/>
		<edge from-layer="679" from-port="2" to-layer="681" to-port="0"/>
		<edge from-layer="680" from-port="0" to-layer="681" to-port="1"/>
		<edge from-layer="681" from-port="2" to-layer="682" to-port="0"/>
		<edge from-layer="682" from-port="1" to-layer="684" to-port="0"/>
		<edge from-layer="683" from-port="0" to-layer="684" to-port="1"/>
		<edge from-layer="684" from-port="2" to-layer="686" to-port="0"/>
		<edge from-layer="685" from-port="0" to-layer="686" to-port="1"/>
		<edge from-layer="686" from-port="2" to-layer="689" to-port="0"/>
		<edge from-layer="687" from-port="0" to-layer="689" to-port="1"/>
		<edge from-layer="688" from-port="0" to-layer="689" to-port="2"/>
		<edge from-layer="689" from-port="3" to-layer="690" to-port="1"/>
		<edge from-layer="690" from-port="2" to-layer="692" to-port="0"/>
		<edge from-layer="691" from-port="0" to-layer="692" to-port="1"/>
		<edge from-layer="692" from-port="2" to-layer="694" to-port="0"/>
		<edge from-layer="693" from-port="0" to-layer="694" to-port="1"/>
		<edge from-layer="694" from-port="2" to-layer="698" to-port="0"/>
		<edge from-layer="694" from-port="2" to-layer="696" to-port="0"/>
		<edge from-layer="695" from-port="0" to-layer="696" to-port="1"/>
		<edge from-layer="696" from-port="2" to-layer="697" to-port="0"/>
		<edge from-layer="697" from-port="1" to-layer="698" to-port="1"/>
		<edge from-layer="698" from-port="2" to-layer="700" to-port="0"/>
		<edge from-layer="699" from-port="0" to-layer="700" to-port="1"/>
		<edge from-layer="700" from-port="2" to-layer="701" to-port="1"/>
		<edge from-layer="701" from-port="2" to-layer="702" to-port="0"/>
		<edge from-layer="702" from-port="1" to-layer="705" to-port="0"/>
		<edge from-layer="703" from-port="0" to-layer="705" to-port="1"/>
		<edge from-layer="704" from-port="0" to-layer="705" to-port="2"/>
		<edge from-layer="705" from-port="4" to-layer="707" to-port="0"/>
		<edge from-layer="705" from-port="3" to-layer="752" to-port="0"/>
		<edge from-layer="706" from-port="0" to-layer="707" to-port="1"/>
		<edge from-layer="707" from-port="2" to-layer="709" to-port="0"/>
		<edge from-layer="708" from-port="0" to-layer="709" to-port="1"/>
		<edge from-layer="709" from-port="2" to-layer="711" to-port="0"/>
		<edge from-layer="709" from-port="2" to-layer="713" to-port="0"/>
		<edge from-layer="710" from-port="0" to-layer="711" to-port="1"/>
		<edge from-layer="711" from-port="2" to-layer="712" to-port="0"/>
		<edge from-layer="712" from-port="1" to-layer="713" to-port="1"/>
		<edge from-layer="713" from-port="2" to-layer="715" to-port="0"/>
		<edge from-layer="714" from-port="0" to-layer="715" to-port="1"/>
		<edge from-layer="715" from-port="2" to-layer="717" to-port="0"/>
		<edge from-layer="715" from-port="2" to-layer="720" to-port="0"/>
		<edge from-layer="716" from-port="0" to-layer="717" to-port="1"/>
		<edge from-layer="717" from-port="2" to-layer="719" to-port="0"/>
		<edge from-layer="718" from-port="0" to-layer="719" to-port="1"/>
		<edge from-layer="719" from-port="2" to-layer="720" to-port="1"/>
		<edge from-layer="720" from-port="2" to-layer="741" to-port="0"/>
		<edge from-layer="720" from-port="2" to-layer="728" to-port="0"/>
		<edge from-layer="720" from-port="2" to-layer="722" to-port="0"/>
		<edge from-layer="721" from-port="0" to-layer="727" to-port="0"/>
		<edge from-layer="722" from-port="1" to-layer="723" to-port="0"/>
		<edge from-layer="723" from-port="1" to-layer="725" to-port="0"/>
		<edge from-layer="724" from-port="0" to-layer="725" to-port="1"/>
		<edge from-layer="725" from-port="2" to-layer="727" to-port="1"/>
		<edge from-layer="726" from-port="0" to-layer="727" to-port="2"/>
		<edge from-layer="727" from-port="3" to-layer="728" to-port="1"/>
		<edge from-layer="728" from-port="2" to-layer="730" to-port="0"/>
		<edge from-layer="729" from-port="0" to-layer="730" to-port="1"/>
		<edge from-layer="730" from-port="2" to-layer="732" to-port="0"/>
		<edge from-layer="731" from-port="0" to-layer="732" to-port="1"/>
		<edge from-layer="732" from-port="2" to-layer="733" to-port="0"/>
		<edge from-layer="733" from-port="1" to-layer="735" to-port="0"/>
		<edge from-layer="734" from-port="0" to-layer="735" to-port="1"/>
		<edge from-layer="735" from-port="2" to-layer="737" to-port="0"/>
		<edge from-layer="736" from-port="0" to-layer="737" to-port="1"/>
		<edge from-layer="737" from-port="2" to-layer="740" to-port="0"/>
		<edge from-layer="738" from-port="0" to-layer="740" to-port="1"/>
		<edge from-layer="739" from-port="0" to-layer="740" to-port="2"/>
		<edge from-layer="740" from-port="3" to-layer="741" to-port="1"/>
		<edge from-layer="741" from-port="2" to-layer="743" to-port="0"/>
		<edge from-layer="742" from-port="0" to-layer="743" to-port="1"/>
		<edge from-layer="743" from-port="2" to-layer="745" to-port="0"/>
		<edge from-layer="744" from-port="0" to-layer="745" to-port="1"/>
		<edge from-layer="745" from-port="2" to-layer="749" to-port="0"/>
		<edge from-layer="745" from-port="2" to-layer="747" to-port="0"/>
		<edge from-layer="746" from-port="0" to-layer="747" to-port="1"/>
		<edge from-layer="747" from-port="2" to-layer="748" to-port="0"/>
		<edge from-layer="748" from-port="1" to-layer="749" to-port="1"/>
		<edge from-layer="749" from-port="2" to-layer="751" to-port="0"/>
		<edge from-layer="750" from-port="0" to-layer="751" to-port="1"/>
		<edge from-layer="751" from-port="2" to-layer="752" to-port="1"/>
		<edge from-layer="752" from-port="2" to-layer="753" to-port="0"/>
		<edge from-layer="753" from-port="1" to-layer="755" to-port="0"/>
		<edge from-layer="754" from-port="0" to-layer="755" to-port="1"/>
		<edge from-layer="755" from-port="2" to-layer="757" to-port="0"/>
		<edge from-layer="756" from-port="0" to-layer="757" to-port="1"/>
		<edge from-layer="757" from-port="2" to-layer="759" to-port="0"/>
		<edge from-layer="757" from-port="2" to-layer="761" to-port="0"/>
		<edge from-layer="758" from-port="0" to-layer="759" to-port="1"/>
		<edge from-layer="759" from-port="2" to-layer="760" to-port="0"/>
		<edge from-layer="760" from-port="1" to-layer="761" to-port="1"/>
		<edge from-layer="761" from-port="2" to-layer="763" to-port="0"/>
		<edge from-layer="762" from-port="0" to-layer="763" to-port="1"/>
		<edge from-layer="763" from-port="2" to-layer="782" to-port="0"/>
		<edge from-layer="763" from-port="2" to-layer="796" to-port="0"/>
		<edge from-layer="763" from-port="2" to-layer="1032" to-port="1"/>
		<edge from-layer="763" from-port="2" to-layer="765" to-port="0"/>
		<edge from-layer="764" from-port="0" to-layer="765" to-port="1"/>
		<edge from-layer="765" from-port="2" to-layer="767" to-port="0"/>
		<edge from-layer="766" from-port="0" to-layer="767" to-port="1"/>
		<edge from-layer="767" from-port="2" to-layer="771" to-port="0"/>
		<edge from-layer="767" from-port="2" to-layer="769" to-port="0"/>
		<edge from-layer="768" from-port="0" to-layer="769" to-port="1"/>
		<edge from-layer="769" from-port="2" to-layer="770" to-port="0"/>
		<edge from-layer="770" from-port="1" to-layer="771" to-port="1"/>
		<edge from-layer="771" from-port="2" to-layer="773" to-port="0"/>
		<edge from-layer="772" from-port="0" to-layer="773" to-port="1"/>
		<edge from-layer="773" from-port="2" to-layer="775" to-port="0"/>
		<edge from-layer="774" from-port="0" to-layer="775" to-port="1"/>
		<edge from-layer="775" from-port="2" to-layer="777" to-port="0"/>
		<edge from-layer="775" from-port="2" to-layer="779" to-port="0"/>
		<edge from-layer="776" from-port="0" to-layer="777" to-port="1"/>
		<edge from-layer="777" from-port="2" to-layer="778" to-port="0"/>
		<edge from-layer="778" from-port="1" to-layer="779" to-port="1"/>
		<edge from-layer="779" from-port="2" to-layer="781" to-port="0"/>
		<edge from-layer="780" from-port="0" to-layer="781" to-port="1"/>
		<edge from-layer="781" from-port="2" to-layer="1104" to-port="0"/>
		<edge from-layer="782" from-port="1" to-layer="783" to-port="0"/>
		<edge from-layer="783" from-port="1" to-layer="785" to-port="0"/>
		<edge from-layer="784" from-port="0" to-layer="785" to-port="1"/>
		<edge from-layer="785" from-port="2" to-layer="787" to-port="0"/>
		<edge from-layer="786" from-port="0" to-layer="787" to-port="1"/>
		<edge from-layer="787" from-port="2" to-layer="788" to-port="0"/>
		<edge from-layer="788" from-port="1" to-layer="789" to-port="0"/>
		<edge from-layer="789" from-port="1" to-layer="793" to-port="0"/>
		<edge from-layer="790" from-port="0" to-layer="793" to-port="1"/>
		<edge from-layer="791" from-port="0" to-layer="793" to-port="2"/>
		<edge from-layer="792" from-port="0" to-layer="793" to-port="3"/>
		<edge from-layer="793" from-port="4" to-layer="796" to-port="1"/>
		<edge from-layer="794" from-port="0" to-layer="796" to-port="2"/>
		<edge from-layer="795" from-port="0" to-layer="796" to-port="3"/>
		<edge from-layer="796" from-port="4" to-layer="807" to-port="0"/>
		<edge from-layer="797" from-port="0" to-layer="798" to-port="1"/>
		<edge from-layer="798" from-port="2" to-layer="800" to-port="0"/>
		<edge from-layer="799" from-port="0" to-layer="800" to-port="1"/>
		<edge from-layer="800" from-port="2" to-layer="802" to-port="0"/>
		<edge from-layer="800" from-port="2" to-layer="804" to-port="0"/>
		<edge from-layer="801" from-port="0" to-layer="802" to-port="1"/>
		<edge from-layer="802" from-port="2" to-layer="803" to-port="0"/>
		<edge from-layer="803" from-port="1" to-layer="804" to-port="1"/>
		<edge from-layer="804" from-port="2" to-layer="806" to-port="0"/>
		<edge from-layer="805" from-port="0" to-layer="806" to-port="1"/>
		<edge from-layer="806" from-port="2" to-layer="807" to-port="1"/>
		<edge from-layer="807" from-port="2" to-layer="809" to-port="0"/>
		<edge from-layer="807" from-port="2" to-layer="843" to-port="0"/>
		<edge from-layer="808" from-port="0" to-layer="809" to-port="1"/>
		<edge from-layer="809" from-port="2" to-layer="811" to-port="0"/>
		<edge from-layer="810" from-port="0" to-layer="811" to-port="1"/>
		<edge from-layer="811" from-port="2" to-layer="815" to-port="0"/>
		<edge from-layer="811" from-port="2" to-layer="813" to-port="0"/>
		<edge from-layer="812" from-port="0" to-layer="813" to-port="1"/>
		<edge from-layer="813" from-port="2" to-layer="814" to-port="0"/>
		<edge from-layer="814" from-port="1" to-layer="815" to-port="1"/>
		<edge from-layer="815" from-port="2" to-layer="817" to-port="0"/>
		<edge from-layer="816" from-port="0" to-layer="817" to-port="1"/>
		<edge from-layer="817" from-port="2" to-layer="819" to-port="0"/>
		<edge from-layer="818" from-port="0" to-layer="819" to-port="1"/>
		<edge from-layer="819" from-port="2" to-layer="821" to-port="0"/>
		<edge from-layer="819" from-port="2" to-layer="823" to-port="0"/>
		<edge from-layer="820" from-port="0" to-layer="821" to-port="1"/>
		<edge from-layer="821" from-port="2" to-layer="822" to-port="0"/>
		<edge from-layer="822" from-port="1" to-layer="823" to-port="1"/>
		<edge from-layer="823" from-port="2" to-layer="825" to-port="0"/>
		<edge from-layer="824" from-port="0" to-layer="825" to-port="1"/>
		<edge from-layer="825" from-port="2" to-layer="827" to-port="0"/>
		<edge from-layer="826" from-port="0" to-layer="827" to-port="1"/>
		<edge from-layer="827" from-port="2" to-layer="831" to-port="0"/>
		<edge from-layer="827" from-port="2" to-layer="829" to-port="0"/>
		<edge from-layer="828" from-port="0" to-layer="829" to-port="1"/>
		<edge from-layer="829" from-port="2" to-layer="830" to-port="0"/>
		<edge from-layer="830" from-port="1" to-layer="831" to-port="1"/>
		<edge from-layer="831" from-port="2" to-layer="833" to-port="0"/>
		<edge from-layer="832" from-port="0" to-layer="833" to-port="1"/>
		<edge from-layer="833" from-port="2" to-layer="835" to-port="0"/>
		<edge from-layer="834" from-port="0" to-layer="835" to-port="1"/>
		<edge from-layer="835" from-port="2" to-layer="837" to-port="0"/>
		<edge from-layer="835" from-port="2" to-layer="839" to-port="0"/>
		<edge from-layer="836" from-port="0" to-layer="837" to-port="1"/>
		<edge from-layer="837" from-port="2" to-layer="838" to-port="0"/>
		<edge from-layer="838" from-port="1" to-layer="839" to-port="1"/>
		<edge from-layer="839" from-port="2" to-layer="841" to-port="0"/>
		<edge from-layer="840" from-port="0" to-layer="841" to-port="1"/>
		<edge from-layer="841" from-port="2" to-layer="852" to-port="0"/>
		<edge from-layer="842" from-port="0" to-layer="843" to-port="1"/>
		<edge from-layer="843" from-port="2" to-layer="845" to-port="0"/>
		<edge from-layer="844" from-port="0" to-layer="845" to-port="1"/>
		<edge from-layer="845" from-port="2" to-layer="847" to-port="0"/>
		<edge from-layer="845" from-port="2" to-layer="849" to-port="0"/>
		<edge from-layer="846" from-port="0" to-layer="847" to-port="1"/>
		<edge from-layer="847" from-port="2" to-layer="848" to-port="0"/>
		<edge from-layer="848" from-port="1" to-layer="849" to-port="1"/>
		<edge from-layer="849" from-port="2" to-layer="851" to-port="0"/>
		<edge from-layer="850" from-port="0" to-layer="851" to-port="1"/>
		<edge from-layer="851" from-port="2" to-layer="852" to-port="1"/>
		<edge from-layer="852" from-port="2" to-layer="854" to-port="0"/>
		<edge from-layer="853" from-port="0" to-layer="854" to-port="1"/>
		<edge from-layer="854" from-port="2" to-layer="856" to-port="0"/>
		<edge from-layer="855" from-port="0" to-layer="856" to-port="1"/>
		<edge from-layer="856" from-port="2" to-layer="858" to-port="0"/>
		<edge from-layer="856" from-port="2" to-layer="860" to-port="0"/>
		<edge from-layer="857" from-port="0" to-layer="858" to-port="1"/>
		<edge from-layer="858" from-port="2" to-layer="859" to-port="0"/>
		<edge from-layer="859" from-port="1" to-layer="860" to-port="1"/>
		<edge from-layer="860" from-port="2" to-layer="862" to-port="0"/>
		<edge from-layer="861" from-port="0" to-layer="862" to-port="1"/>
		<edge from-layer="862" from-port="2" to-layer="863" to-port="0"/>
		<edge from-layer="862" from-port="2" to-layer="960" to-port="1"/>
		<edge from-layer="862" from-port="2" to-layer="877" to-port="0"/>
		<edge from-layer="863" from-port="1" to-layer="864" to-port="0"/>
		<edge from-layer="864" from-port="1" to-layer="866" to-port="0"/>
		<edge from-layer="865" from-port="0" to-layer="866" to-port="1"/>
		<edge from-layer="866" from-port="2" to-layer="868" to-port="0"/>
		<edge from-layer="867" from-port="0" to-layer="868" to-port="1"/>
		<edge from-layer="868" from-port="2" to-layer="869" to-port="0"/>
		<edge from-layer="869" from-port="1" to-layer="870" to-port="0"/>
		<edge from-layer="870" from-port="1" to-layer="874" to-port="0"/>
		<edge from-layer="871" from-port="0" to-layer="874" to-port="1"/>
		<edge from-layer="872" from-port="0" to-layer="874" to-port="2"/>
		<edge from-layer="873" from-port="0" to-layer="874" to-port="3"/>
		<edge from-layer="874" from-port="4" to-layer="877" to-port="1"/>
		<edge from-layer="875" from-port="0" to-layer="877" to-port="2"/>
		<edge from-layer="876" from-port="0" to-layer="877" to-port="3"/>
		<edge from-layer="877" from-port="4" to-layer="888" to-port="0"/>
		<edge from-layer="878" from-port="0" to-layer="879" to-port="1"/>
		<edge from-layer="879" from-port="2" to-layer="881" to-port="0"/>
		<edge from-layer="880" from-port="0" to-layer="881" to-port="1"/>
		<edge from-layer="881" from-port="2" to-layer="885" to-port="0"/>
		<edge from-layer="881" from-port="2" to-layer="883" to-port="0"/>
		<edge from-layer="882" from-port="0" to-layer="883" to-port="1"/>
		<edge from-layer="883" from-port="2" to-layer="884" to-port="0"/>
		<edge from-layer="884" from-port="1" to-layer="885" to-port="1"/>
		<edge from-layer="885" from-port="2" to-layer="887" to-port="0"/>
		<edge from-layer="886" from-port="0" to-layer="887" to-port="1"/>
		<edge from-layer="887" from-port="2" to-layer="888" to-port="1"/>
		<edge from-layer="888" from-port="2" to-layer="924" to-port="0"/>
		<edge from-layer="888" from-port="2" to-layer="890" to-port="0"/>
		<edge from-layer="889" from-port="0" to-layer="890" to-port="1"/>
		<edge from-layer="890" from-port="2" to-layer="892" to-port="0"/>
		<edge from-layer="891" from-port="0" to-layer="892" to-port="1"/>
		<edge from-layer="892" from-port="2" to-layer="894" to-port="0"/>
		<edge from-layer="892" from-port="2" to-layer="896" to-port="0"/>
		<edge from-layer="893" from-port="0" to-layer="894" to-port="1"/>
		<edge from-layer="894" from-port="2" to-layer="895" to-port="0"/>
		<edge from-layer="895" from-port="1" to-layer="896" to-port="1"/>
		<edge from-layer="896" from-port="2" to-layer="898" to-port="0"/>
		<edge from-layer="897" from-port="0" to-layer="898" to-port="1"/>
		<edge from-layer="898" from-port="2" to-layer="900" to-port="0"/>
		<edge from-layer="899" from-port="0" to-layer="900" to-port="1"/>
		<edge from-layer="900" from-port="2" to-layer="904" to-port="0"/>
		<edge from-layer="900" from-port="2" to-layer="902" to-port="0"/>
		<edge from-layer="901" from-port="0" to-layer="902" to-port="1"/>
		<edge from-layer="902" from-port="2" to-layer="903" to-port="0"/>
		<edge from-layer="903" from-port="1" to-layer="904" to-port="1"/>
		<edge from-layer="904" from-port="2" to-layer="906" to-port="0"/>
		<edge from-layer="905" from-port="0" to-layer="906" to-port="1"/>
		<edge from-layer="906" from-port="2" to-layer="908" to-port="0"/>
		<edge from-layer="907" from-port="0" to-layer="908" to-port="1"/>
		<edge from-layer="908" from-port="2" to-layer="912" to-port="0"/>
		<edge from-layer="908" from-port="2" to-layer="910" to-port="0"/>
		<edge from-layer="909" from-port="0" to-layer="910" to-port="1"/>
		<edge from-layer="910" from-port="2" to-layer="911" to-port="0"/>
		<edge from-layer="911" from-port="1" to-layer="912" to-port="1"/>
		<edge from-layer="912" from-port="2" to-layer="914" to-port="0"/>
		<edge from-layer="913" from-port="0" to-layer="914" to-port="1"/>
		<edge from-layer="914" from-port="2" to-layer="916" to-port="0"/>
		<edge from-layer="915" from-port="0" to-layer="916" to-port="1"/>
		<edge from-layer="916" from-port="2" to-layer="918" to-port="0"/>
		<edge from-layer="916" from-port="2" to-layer="920" to-port="0"/>
		<edge from-layer="917" from-port="0" to-layer="918" to-port="1"/>
		<edge from-layer="918" from-port="2" to-layer="919" to-port="0"/>
		<edge from-layer="919" from-port="1" to-layer="920" to-port="1"/>
		<edge from-layer="920" from-port="2" to-layer="922" to-port="0"/>
		<edge from-layer="921" from-port="0" to-layer="922" to-port="1"/>
		<edge from-layer="922" from-port="2" to-layer="933" to-port="0"/>
		<edge from-layer="923" from-port="0" to-layer="924" to-port="1"/>
		<edge from-layer="924" from-port="2" to-layer="926" to-port="0"/>
		<edge from-layer="925" from-port="0" to-layer="926" to-port="1"/>
		<edge from-layer="926" from-port="2" to-layer="930" to-port="0"/>
		<edge from-layer="926" from-port="2" to-layer="928" to-port="0"/>
		<edge from-layer="927" from-port="0" to-layer="928" to-port="1"/>
		<edge from-layer="928" from-port="2" to-layer="929" to-port="0"/>
		<edge from-layer="929" from-port="1" to-layer="930" to-port="1"/>
		<edge from-layer="930" from-port="2" to-layer="932" to-port="0"/>
		<edge from-layer="931" from-port="0" to-layer="932" to-port="1"/>
		<edge from-layer="932" from-port="2" to-layer="933" to-port="1"/>
		<edge from-layer="933" from-port="2" to-layer="935" to-port="0"/>
		<edge from-layer="934" from-port="0" to-layer="935" to-port="1"/>
		<edge from-layer="935" from-port="2" to-layer="937" to-port="0"/>
		<edge from-layer="936" from-port="0" to-layer="937" to-port="1"/>
		<edge from-layer="937" from-port="2" to-layer="939" to-port="0"/>
		<edge from-layer="937" from-port="2" to-layer="941" to-port="0"/>
		<edge from-layer="938" from-port="0" to-layer="939" to-port="1"/>
		<edge from-layer="939" from-port="2" to-layer="940" to-port="0"/>
		<edge from-layer="940" from-port="1" to-layer="941" to-port="1"/>
		<edge from-layer="941" from-port="2" to-layer="943" to-port="0"/>
		<edge from-layer="941" from-port="2" to-layer="1256" to-port="0"/>
		<edge from-layer="942" from-port="0" to-layer="943" to-port="1"/>
		<edge from-layer="943" from-port="2" to-layer="945" to-port="0"/>
		<edge from-layer="944" from-port="0" to-layer="945" to-port="1"/>
		<edge from-layer="945" from-port="2" to-layer="949" to-port="0"/>
		<edge from-layer="945" from-port="2" to-layer="947" to-port="0"/>
		<edge from-layer="946" from-port="0" to-layer="947" to-port="1"/>
		<edge from-layer="947" from-port="2" to-layer="948" to-port="0"/>
		<edge from-layer="948" from-port="1" to-layer="949" to-port="1"/>
		<edge from-layer="949" from-port="2" to-layer="951" to-port="0"/>
		<edge from-layer="950" from-port="0" to-layer="951" to-port="1"/>
		<edge from-layer="951" from-port="2" to-layer="953" to-port="0"/>
		<edge from-layer="952" from-port="0" to-layer="953" to-port="1"/>
		<edge from-layer="953" from-port="2" to-layer="955" to-port="0"/>
		<edge from-layer="953" from-port="2" to-layer="957" to-port="0"/>
		<edge from-layer="954" from-port="0" to-layer="955" to-port="1"/>
		<edge from-layer="955" from-port="2" to-layer="956" to-port="0"/>
		<edge from-layer="956" from-port="1" to-layer="957" to-port="1"/>
		<edge from-layer="957" from-port="2" to-layer="959" to-port="0"/>
		<edge from-layer="958" from-port="0" to-layer="959" to-port="1"/>
		<edge from-layer="959" from-port="2" to-layer="960" to-port="0"/>
		<edge from-layer="960" from-port="2" to-layer="996" to-port="0"/>
		<edge from-layer="960" from-port="2" to-layer="962" to-port="0"/>
		<edge from-layer="961" from-port="0" to-layer="962" to-port="1"/>
		<edge from-layer="962" from-port="2" to-layer="964" to-port="0"/>
		<edge from-layer="963" from-port="0" to-layer="964" to-port="1"/>
		<edge from-layer="964" from-port="2" to-layer="966" to-port="0"/>
		<edge from-layer="964" from-port="2" to-layer="968" to-port="0"/>
		<edge from-layer="965" from-port="0" to-layer="966" to-port="1"/>
		<edge from-layer="966" from-port="2" to-layer="967" to-port="0"/>
		<edge from-layer="967" from-port="1" to-layer="968" to-port="1"/>
		<edge from-layer="968" from-port="2" to-layer="970" to-port="0"/>
		<edge from-layer="969" from-port="0" to-layer="970" to-port="1"/>
		<edge from-layer="970" from-port="2" to-layer="972" to-port="0"/>
		<edge from-layer="971" from-port="0" to-layer="972" to-port="1"/>
		<edge from-layer="972" from-port="2" to-layer="974" to-port="0"/>
		<edge from-layer="972" from-port="2" to-layer="976" to-port="0"/>
		<edge from-layer="973" from-port="0" to-layer="974" to-port="1"/>
		<edge from-layer="974" from-port="2" to-layer="975" to-port="0"/>
		<edge from-layer="975" from-port="1" to-layer="976" to-port="1"/>
		<edge from-layer="976" from-port="2" to-layer="978" to-port="0"/>
		<edge from-layer="977" from-port="0" to-layer="978" to-port="1"/>
		<edge from-layer="978" from-port="2" to-layer="980" to-port="0"/>
		<edge from-layer="979" from-port="0" to-layer="980" to-port="1"/>
		<edge from-layer="980" from-port="2" to-layer="984" to-port="0"/>
		<edge from-layer="980" from-port="2" to-layer="982" to-port="0"/>
		<edge from-layer="981" from-port="0" to-layer="982" to-port="1"/>
		<edge from-layer="982" from-port="2" to-layer="983" to-port="0"/>
		<edge from-layer="983" from-port="1" to-layer="984" to-port="1"/>
		<edge from-layer="984" from-port="2" to-layer="986" to-port="0"/>
		<edge from-layer="985" from-port="0" to-layer="986" to-port="1"/>
		<edge from-layer="986" from-port="2" to-layer="988" to-port="0"/>
		<edge from-layer="987" from-port="0" to-layer="988" to-port="1"/>
		<edge from-layer="988" from-port="2" to-layer="990" to-port="0"/>
		<edge from-layer="988" from-port="2" to-layer="992" to-port="0"/>
		<edge from-layer="989" from-port="0" to-layer="990" to-port="1"/>
		<edge from-layer="990" from-port="2" to-layer="991" to-port="0"/>
		<edge from-layer="991" from-port="1" to-layer="992" to-port="1"/>
		<edge from-layer="992" from-port="2" to-layer="994" to-port="0"/>
		<edge from-layer="993" from-port="0" to-layer="994" to-port="1"/>
		<edge from-layer="994" from-port="2" to-layer="1005" to-port="0"/>
		<edge from-layer="995" from-port="0" to-layer="996" to-port="1"/>
		<edge from-layer="996" from-port="2" to-layer="998" to-port="0"/>
		<edge from-layer="997" from-port="0" to-layer="998" to-port="1"/>
		<edge from-layer="998" from-port="2" to-layer="1000" to-port="0"/>
		<edge from-layer="998" from-port="2" to-layer="1002" to-port="0"/>
		<edge from-layer="999" from-port="0" to-layer="1000" to-port="1"/>
		<edge from-layer="1000" from-port="2" to-layer="1001" to-port="0"/>
		<edge from-layer="1001" from-port="1" to-layer="1002" to-port="1"/>
		<edge from-layer="1002" from-port="2" to-layer="1004" to-port="0"/>
		<edge from-layer="1003" from-port="0" to-layer="1004" to-port="1"/>
		<edge from-layer="1004" from-port="2" to-layer="1005" to-port="1"/>
		<edge from-layer="1005" from-port="2" to-layer="1007" to-port="0"/>
		<edge from-layer="1006" from-port="0" to-layer="1007" to-port="1"/>
		<edge from-layer="1007" from-port="2" to-layer="1009" to-port="0"/>
		<edge from-layer="1008" from-port="0" to-layer="1009" to-port="1"/>
		<edge from-layer="1009" from-port="2" to-layer="1013" to-port="0"/>
		<edge from-layer="1009" from-port="2" to-layer="1011" to-port="0"/>
		<edge from-layer="1010" from-port="0" to-layer="1011" to-port="1"/>
		<edge from-layer="1011" from-port="2" to-layer="1012" to-port="0"/>
		<edge from-layer="1012" from-port="1" to-layer="1013" to-port="1"/>
		<edge from-layer="1013" from-port="2" to-layer="1015" to-port="0"/>
		<edge from-layer="1013" from-port="2" to-layer="1206" to-port="0"/>
		<edge from-layer="1014" from-port="0" to-layer="1015" to-port="1"/>
		<edge from-layer="1015" from-port="2" to-layer="1017" to-port="0"/>
		<edge from-layer="1016" from-port="0" to-layer="1017" to-port="1"/>
		<edge from-layer="1017" from-port="2" to-layer="1019" to-port="0"/>
		<edge from-layer="1017" from-port="2" to-layer="1021" to-port="0"/>
		<edge from-layer="1018" from-port="0" to-layer="1019" to-port="1"/>
		<edge from-layer="1019" from-port="2" to-layer="1020" to-port="0"/>
		<edge from-layer="1020" from-port="1" to-layer="1021" to-port="1"/>
		<edge from-layer="1021" from-port="2" to-layer="1023" to-port="0"/>
		<edge from-layer="1022" from-port="0" to-layer="1023" to-port="1"/>
		<edge from-layer="1023" from-port="2" to-layer="1025" to-port="0"/>
		<edge from-layer="1024" from-port="0" to-layer="1025" to-port="1"/>
		<edge from-layer="1025" from-port="2" to-layer="1029" to-port="0"/>
		<edge from-layer="1025" from-port="2" to-layer="1027" to-port="0"/>
		<edge from-layer="1026" from-port="0" to-layer="1027" to-port="1"/>
		<edge from-layer="1027" from-port="2" to-layer="1028" to-port="0"/>
		<edge from-layer="1028" from-port="1" to-layer="1029" to-port="1"/>
		<edge from-layer="1029" from-port="2" to-layer="1031" to-port="0"/>
		<edge from-layer="1030" from-port="0" to-layer="1031" to-port="1"/>
		<edge from-layer="1031" from-port="2" to-layer="1032" to-port="0"/>
		<edge from-layer="1032" from-port="2" to-layer="1068" to-port="0"/>
		<edge from-layer="1032" from-port="2" to-layer="1034" to-port="0"/>
		<edge from-layer="1033" from-port="0" to-layer="1034" to-port="1"/>
		<edge from-layer="1034" from-port="2" to-layer="1036" to-port="0"/>
		<edge from-layer="1035" from-port="0" to-layer="1036" to-port="1"/>
		<edge from-layer="1036" from-port="2" to-layer="1038" to-port="0"/>
		<edge from-layer="1036" from-port="2" to-layer="1040" to-port="0"/>
		<edge from-layer="1037" from-port="0" to-layer="1038" to-port="1"/>
		<edge from-layer="1038" from-port="2" to-layer="1039" to-port="0"/>
		<edge from-layer="1039" from-port="1" to-layer="1040" to-port="1"/>
		<edge from-layer="1040" from-port="2" to-layer="1042" to-port="0"/>
		<edge from-layer="1041" from-port="0" to-layer="1042" to-port="1"/>
		<edge from-layer="1042" from-port="2" to-layer="1044" to-port="0"/>
		<edge from-layer="1043" from-port="0" to-layer="1044" to-port="1"/>
		<edge from-layer="1044" from-port="2" to-layer="1046" to-port="0"/>
		<edge from-layer="1044" from-port="2" to-layer="1048" to-port="0"/>
		<edge from-layer="1045" from-port="0" to-layer="1046" to-port="1"/>
		<edge from-layer="1046" from-port="2" to-layer="1047" to-port="0"/>
		<edge from-layer="1047" from-port="1" to-layer="1048" to-port="1"/>
		<edge from-layer="1048" from-port="2" to-layer="1050" to-port="0"/>
		<edge from-layer="1049" from-port="0" to-layer="1050" to-port="1"/>
		<edge from-layer="1050" from-port="2" to-layer="1052" to-port="0"/>
		<edge from-layer="1051" from-port="0" to-layer="1052" to-port="1"/>
		<edge from-layer="1052" from-port="2" to-layer="1056" to-port="0"/>
		<edge from-layer="1052" from-port="2" to-layer="1054" to-port="0"/>
		<edge from-layer="1053" from-port="0" to-layer="1054" to-port="1"/>
		<edge from-layer="1054" from-port="2" to-layer="1055" to-port="0"/>
		<edge from-layer="1055" from-port="1" to-layer="1056" to-port="1"/>
		<edge from-layer="1056" from-port="2" to-layer="1058" to-port="0"/>
		<edge from-layer="1057" from-port="0" to-layer="1058" to-port="1"/>
		<edge from-layer="1058" from-port="2" to-layer="1060" to-port="0"/>
		<edge from-layer="1059" from-port="0" to-layer="1060" to-port="1"/>
		<edge from-layer="1060" from-port="2" to-layer="1062" to-port="0"/>
		<edge from-layer="1060" from-port="2" to-layer="1064" to-port="0"/>
		<edge from-layer="1061" from-port="0" to-layer="1062" to-port="1"/>
		<edge from-layer="1062" from-port="2" to-layer="1063" to-port="0"/>
		<edge from-layer="1063" from-port="1" to-layer="1064" to-port="1"/>
		<edge from-layer="1064" from-port="2" to-layer="1066" to-port="0"/>
		<edge from-layer="1065" from-port="0" to-layer="1066" to-port="1"/>
		<edge from-layer="1066" from-port="2" to-layer="1077" to-port="0"/>
		<edge from-layer="1067" from-port="0" to-layer="1068" to-port="1"/>
		<edge from-layer="1068" from-port="2" to-layer="1070" to-port="0"/>
		<edge from-layer="1069" from-port="0" to-layer="1070" to-port="1"/>
		<edge from-layer="1070" from-port="2" to-layer="1074" to-port="0"/>
		<edge from-layer="1070" from-port="2" to-layer="1072" to-port="0"/>
		<edge from-layer="1071" from-port="0" to-layer="1072" to-port="1"/>
		<edge from-layer="1072" from-port="2" to-layer="1073" to-port="0"/>
		<edge from-layer="1073" from-port="1" to-layer="1074" to-port="1"/>
		<edge from-layer="1074" from-port="2" to-layer="1076" to-port="0"/>
		<edge from-layer="1075" from-port="0" to-layer="1076" to-port="1"/>
		<edge from-layer="1076" from-port="2" to-layer="1077" to-port="1"/>
		<edge from-layer="1077" from-port="2" to-layer="1079" to-port="0"/>
		<edge from-layer="1078" from-port="0" to-layer="1079" to-port="1"/>
		<edge from-layer="1079" from-port="2" to-layer="1081" to-port="0"/>
		<edge from-layer="1080" from-port="0" to-layer="1081" to-port="1"/>
		<edge from-layer="1081" from-port="2" to-layer="1083" to-port="0"/>
		<edge from-layer="1081" from-port="2" to-layer="1085" to-port="0"/>
		<edge from-layer="1082" from-port="0" to-layer="1083" to-port="1"/>
		<edge from-layer="1083" from-port="2" to-layer="1084" to-port="0"/>
		<edge from-layer="1084" from-port="1" to-layer="1085" to-port="1"/>
		<edge from-layer="1085" from-port="2" to-layer="1156" to-port="0"/>
		<edge from-layer="1085" from-port="2" to-layer="1087" to-port="0"/>
		<edge from-layer="1086" from-port="0" to-layer="1087" to-port="1"/>
		<edge from-layer="1087" from-port="2" to-layer="1089" to-port="0"/>
		<edge from-layer="1088" from-port="0" to-layer="1089" to-port="1"/>
		<edge from-layer="1089" from-port="2" to-layer="1091" to-port="0"/>
		<edge from-layer="1089" from-port="2" to-layer="1093" to-port="0"/>
		<edge from-layer="1090" from-port="0" to-layer="1091" to-port="1"/>
		<edge from-layer="1091" from-port="2" to-layer="1092" to-port="0"/>
		<edge from-layer="1092" from-port="1" to-layer="1093" to-port="1"/>
		<edge from-layer="1093" from-port="2" to-layer="1095" to-port="0"/>
		<edge from-layer="1094" from-port="0" to-layer="1095" to-port="1"/>
		<edge from-layer="1095" from-port="2" to-layer="1097" to-port="0"/>
		<edge from-layer="1096" from-port="0" to-layer="1097" to-port="1"/>
		<edge from-layer="1097" from-port="2" to-layer="1099" to-port="0"/>
		<edge from-layer="1097" from-port="2" to-layer="1101" to-port="0"/>
		<edge from-layer="1098" from-port="0" to-layer="1099" to-port="1"/>
		<edge from-layer="1099" from-port="2" to-layer="1100" to-port="0"/>
		<edge from-layer="1100" from-port="1" to-layer="1101" to-port="1"/>
		<edge from-layer="1101" from-port="2" to-layer="1103" to-port="0"/>
		<edge from-layer="1102" from-port="0" to-layer="1103" to-port="1"/>
		<edge from-layer="1103" from-port="2" to-layer="1104" to-port="1"/>
		<edge from-layer="1104" from-port="2" to-layer="1106" to-port="0"/>
		<edge from-layer="1105" from-port="0" to-layer="1106" to-port="1"/>
		<edge from-layer="1106" from-port="2" to-layer="1108" to-port="0"/>
		<edge from-layer="1107" from-port="0" to-layer="1108" to-port="1"/>
		<edge from-layer="1108" from-port="2" to-layer="1112" to-port="0"/>
		<edge from-layer="1108" from-port="2" to-layer="1110" to-port="0"/>
		<edge from-layer="1109" from-port="0" to-layer="1110" to-port="1"/>
		<edge from-layer="1110" from-port="2" to-layer="1111" to-port="0"/>
		<edge from-layer="1111" from-port="1" to-layer="1112" to-port="1"/>
		<edge from-layer="1112" from-port="2" to-layer="1114" to-port="0"/>
		<edge from-layer="1113" from-port="0" to-layer="1114" to-port="1"/>
		<edge from-layer="1114" from-port="2" to-layer="1116" to-port="0"/>
		<edge from-layer="1115" from-port="0" to-layer="1116" to-port="1"/>
		<edge from-layer="1116" from-port="2" to-layer="1120" to-port="0"/>
		<edge from-layer="1116" from-port="2" to-layer="1118" to-port="0"/>
		<edge from-layer="1117" from-port="0" to-layer="1118" to-port="1"/>
		<edge from-layer="1118" from-port="2" to-layer="1119" to-port="0"/>
		<edge from-layer="1119" from-port="1" to-layer="1120" to-port="1"/>
		<edge from-layer="1120" from-port="2" to-layer="1122" to-port="0"/>
		<edge from-layer="1121" from-port="0" to-layer="1122" to-port="1"/>
		<edge from-layer="1122" from-port="2" to-layer="1124" to-port="0"/>
		<edge from-layer="1123" from-port="0" to-layer="1124" to-port="1"/>
		<edge from-layer="1124" from-port="2" to-layer="1128" to-port="0"/>
		<edge from-layer="1124" from-port="2" to-layer="1126" to-port="0"/>
		<edge from-layer="1125" from-port="0" to-layer="1126" to-port="1"/>
		<edge from-layer="1126" from-port="2" to-layer="1127" to-port="0"/>
		<edge from-layer="1127" from-port="1" to-layer="1128" to-port="1"/>
		<edge from-layer="1128" from-port="2" to-layer="1130" to-port="0"/>
		<edge from-layer="1129" from-port="0" to-layer="1130" to-port="1"/>
		<edge from-layer="1130" from-port="2" to-layer="1132" to-port="0"/>
		<edge from-layer="1131" from-port="0" to-layer="1132" to-port="1"/>
		<edge from-layer="1132" from-port="2" to-layer="1134" to-port="0"/>
		<edge from-layer="1132" from-port="2" to-layer="1136" to-port="0"/>
		<edge from-layer="1133" from-port="0" to-layer="1134" to-port="1"/>
		<edge from-layer="1134" from-port="2" to-layer="1135" to-port="0"/>
		<edge from-layer="1135" from-port="1" to-layer="1136" to-port="1"/>
		<edge from-layer="1136" from-port="2" to-layer="1138" to-port="0"/>
		<edge from-layer="1137" from-port="0" to-layer="1138" to-port="1"/>
		<edge from-layer="1138" from-port="2" to-layer="1140" to-port="0"/>
		<edge from-layer="1139" from-port="0" to-layer="1140" to-port="1"/>
		<edge from-layer="1140" from-port="2" to-layer="1143" to-port="0"/>
		<edge from-layer="1141" from-port="0" to-layer="1143" to-port="1"/>
		<edge from-layer="1142" from-port="0" to-layer="1143" to-port="2"/>
		<edge from-layer="1143" from-port="3" to-layer="1149" to-port="0"/>
		<edge from-layer="1143" from-port="4" to-layer="1145" to-port="0"/>
		<edge from-layer="1144" from-port="0" to-layer="1145" to-port="1"/>
		<edge from-layer="1145" from-port="2" to-layer="1147" to-port="0"/>
		<edge from-layer="1146" from-port="0" to-layer="1147" to-port="1"/>
		<edge from-layer="1147" from-port="2" to-layer="1148" to-port="0"/>
		<edge from-layer="1149" from-port="1" to-layer="1151" to-port="0"/>
		<edge from-layer="1150" from-port="0" to-layer="1151" to-port="1"/>
		<edge from-layer="1151" from-port="2" to-layer="1153" to-port="0"/>
		<edge from-layer="1152" from-port="0" to-layer="1153" to-port="1"/>
		<edge from-layer="1153" from-port="2" to-layer="1154" to-port="0"/>
		<edge from-layer="1155" from-port="0" to-layer="1156" to-port="1"/>
		<edge from-layer="1156" from-port="2" to-layer="1158" to-port="0"/>
		<edge from-layer="1157" from-port="0" to-layer="1158" to-port="1"/>
		<edge from-layer="1158" from-port="2" to-layer="1160" to-port="0"/>
		<edge from-layer="1158" from-port="2" to-layer="1162" to-port="0"/>
		<edge from-layer="1159" from-port="0" to-layer="1160" to-port="1"/>
		<edge from-layer="1160" from-port="2" to-layer="1161" to-port="0"/>
		<edge from-layer="1161" from-port="1" to-layer="1162" to-port="1"/>
		<edge from-layer="1162" from-port="2" to-layer="1164" to-port="0"/>
		<edge from-layer="1163" from-port="0" to-layer="1164" to-port="1"/>
		<edge from-layer="1164" from-port="2" to-layer="1166" to-port="0"/>
		<edge from-layer="1165" from-port="0" to-layer="1166" to-port="1"/>
		<edge from-layer="1166" from-port="2" to-layer="1170" to-port="0"/>
		<edge from-layer="1166" from-port="2" to-layer="1168" to-port="0"/>
		<edge from-layer="1167" from-port="0" to-layer="1168" to-port="1"/>
		<edge from-layer="1168" from-port="2" to-layer="1169" to-port="0"/>
		<edge from-layer="1169" from-port="1" to-layer="1170" to-port="1"/>
		<edge from-layer="1170" from-port="2" to-layer="1172" to-port="0"/>
		<edge from-layer="1171" from-port="0" to-layer="1172" to-port="1"/>
		<edge from-layer="1172" from-port="2" to-layer="1174" to-port="0"/>
		<edge from-layer="1173" from-port="0" to-layer="1174" to-port="1"/>
		<edge from-layer="1174" from-port="2" to-layer="1178" to-port="0"/>
		<edge from-layer="1174" from-port="2" to-layer="1176" to-port="0"/>
		<edge from-layer="1175" from-port="0" to-layer="1176" to-port="1"/>
		<edge from-layer="1176" from-port="2" to-layer="1177" to-port="0"/>
		<edge from-layer="1177" from-port="1" to-layer="1178" to-port="1"/>
		<edge from-layer="1178" from-port="2" to-layer="1180" to-port="0"/>
		<edge from-layer="1179" from-port="0" to-layer="1180" to-port="1"/>
		<edge from-layer="1180" from-port="2" to-layer="1182" to-port="0"/>
		<edge from-layer="1181" from-port="0" to-layer="1182" to-port="1"/>
		<edge from-layer="1182" from-port="2" to-layer="1186" to-port="0"/>
		<edge from-layer="1182" from-port="2" to-layer="1184" to-port="0"/>
		<edge from-layer="1183" from-port="0" to-layer="1184" to-port="1"/>
		<edge from-layer="1184" from-port="2" to-layer="1185" to-port="0"/>
		<edge from-layer="1185" from-port="1" to-layer="1186" to-port="1"/>
		<edge from-layer="1186" from-port="2" to-layer="1188" to-port="0"/>
		<edge from-layer="1187" from-port="0" to-layer="1188" to-port="1"/>
		<edge from-layer="1188" from-port="2" to-layer="1190" to-port="0"/>
		<edge from-layer="1189" from-port="0" to-layer="1190" to-port="1"/>
		<edge from-layer="1190" from-port="2" to-layer="1193" to-port="0"/>
		<edge from-layer="1191" from-port="0" to-layer="1193" to-port="1"/>
		<edge from-layer="1192" from-port="0" to-layer="1193" to-port="2"/>
		<edge from-layer="1193" from-port="4" to-layer="1195" to-port="0"/>
		<edge from-layer="1193" from-port="3" to-layer="1199" to-port="0"/>
		<edge from-layer="1194" from-port="0" to-layer="1195" to-port="1"/>
		<edge from-layer="1195" from-port="2" to-layer="1197" to-port="0"/>
		<edge from-layer="1196" from-port="0" to-layer="1197" to-port="1"/>
		<edge from-layer="1197" from-port="2" to-layer="1198" to-port="0"/>
		<edge from-layer="1199" from-port="1" to-layer="1201" to-port="0"/>
		<edge from-layer="1200" from-port="0" to-layer="1201" to-port="1"/>
		<edge from-layer="1201" from-port="2" to-layer="1203" to-port="0"/>
		<edge from-layer="1202" from-port="0" to-layer="1203" to-port="1"/>
		<edge from-layer="1203" from-port="2" to-layer="1204" to-port="0"/>
		<edge from-layer="1205" from-port="0" to-layer="1206" to-port="1"/>
		<edge from-layer="1206" from-port="2" to-layer="1208" to-port="0"/>
		<edge from-layer="1207" from-port="0" to-layer="1208" to-port="1"/>
		<edge from-layer="1208" from-port="2" to-layer="1210" to-port="0"/>
		<edge from-layer="1208" from-port="2" to-layer="1212" to-port="0"/>
		<edge from-layer="1209" from-port="0" to-layer="1210" to-port="1"/>
		<edge from-layer="1210" from-port="2" to-layer="1211" to-port="0"/>
		<edge from-layer="1211" from-port="1" to-layer="1212" to-port="1"/>
		<edge from-layer="1212" from-port="2" to-layer="1214" to-port="0"/>
		<edge from-layer="1213" from-port="0" to-layer="1214" to-port="1"/>
		<edge from-layer="1214" from-port="2" to-layer="1216" to-port="0"/>
		<edge from-layer="1215" from-port="0" to-layer="1216" to-port="1"/>
		<edge from-layer="1216" from-port="2" to-layer="1220" to-port="0"/>
		<edge from-layer="1216" from-port="2" to-layer="1218" to-port="0"/>
		<edge from-layer="1217" from-port="0" to-layer="1218" to-port="1"/>
		<edge from-layer="1218" from-port="2" to-layer="1219" to-port="0"/>
		<edge from-layer="1219" from-port="1" to-layer="1220" to-port="1"/>
		<edge from-layer="1220" from-port="2" to-layer="1222" to-port="0"/>
		<edge from-layer="1221" from-port="0" to-layer="1222" to-port="1"/>
		<edge from-layer="1222" from-port="2" to-layer="1224" to-port="0"/>
		<edge from-layer="1223" from-port="0" to-layer="1224" to-port="1"/>
		<edge from-layer="1224" from-port="2" to-layer="1226" to-port="0"/>
		<edge from-layer="1224" from-port="2" to-layer="1228" to-port="0"/>
		<edge from-layer="1225" from-port="0" to-layer="1226" to-port="1"/>
		<edge from-layer="1226" from-port="2" to-layer="1227" to-port="0"/>
		<edge from-layer="1227" from-port="1" to-layer="1228" to-port="1"/>
		<edge from-layer="1228" from-port="2" to-layer="1230" to-port="0"/>
		<edge from-layer="1229" from-port="0" to-layer="1230" to-port="1"/>
		<edge from-layer="1230" from-port="2" to-layer="1232" to-port="0"/>
		<edge from-layer="1231" from-port="0" to-layer="1232" to-port="1"/>
		<edge from-layer="1232" from-port="2" to-layer="1234" to-port="0"/>
		<edge from-layer="1232" from-port="2" to-layer="1236" to-port="0"/>
		<edge from-layer="1233" from-port="0" to-layer="1234" to-port="1"/>
		<edge from-layer="1234" from-port="2" to-layer="1235" to-port="0"/>
		<edge from-layer="1235" from-port="1" to-layer="1236" to-port="1"/>
		<edge from-layer="1236" from-port="2" to-layer="1238" to-port="0"/>
		<edge from-layer="1237" from-port="0" to-layer="1238" to-port="1"/>
		<edge from-layer="1238" from-port="2" to-layer="1240" to-port="0"/>
		<edge from-layer="1239" from-port="0" to-layer="1240" to-port="1"/>
		<edge from-layer="1240" from-port="2" to-layer="1243" to-port="0"/>
		<edge from-layer="1241" from-port="0" to-layer="1243" to-port="1"/>
		<edge from-layer="1242" from-port="0" to-layer="1243" to-port="2"/>
		<edge from-layer="1243" from-port="4" to-layer="1245" to-port="0"/>
		<edge from-layer="1243" from-port="3" to-layer="1249" to-port="0"/>
		<edge from-layer="1244" from-port="0" to-layer="1245" to-port="1"/>
		<edge from-layer="1245" from-port="2" to-layer="1247" to-port="0"/>
		<edge from-layer="1246" from-port="0" to-layer="1247" to-port="1"/>
		<edge from-layer="1247" from-port="2" to-layer="1248" to-port="0"/>
		<edge from-layer="1249" from-port="1" to-layer="1251" to-port="0"/>
		<edge from-layer="1250" from-port="0" to-layer="1251" to-port="1"/>
		<edge from-layer="1251" from-port="2" to-layer="1253" to-port="0"/>
		<edge from-layer="1252" from-port="0" to-layer="1253" to-port="1"/>
		<edge from-layer="1253" from-port="2" to-layer="1254" to-port="0"/>
		<edge from-layer="1255" from-port="0" to-layer="1256" to-port="1"/>
		<edge from-layer="1256" from-port="2" to-layer="1258" to-port="0"/>
		<edge from-layer="1257" from-port="0" to-layer="1258" to-port="1"/>
		<edge from-layer="1258" from-port="2" to-layer="1260" to-port="0"/>
		<edge from-layer="1258" from-port="2" to-layer="1262" to-port="0"/>
		<edge from-layer="1259" from-port="0" to-layer="1260" to-port="1"/>
		<edge from-layer="1260" from-port="2" to-layer="1261" to-port="0"/>
		<edge from-layer="1261" from-port="1" to-layer="1262" to-port="1"/>
		<edge from-layer="1262" from-port="2" to-layer="1264" to-port="0"/>
		<edge from-layer="1263" from-port="0" to-layer="1264" to-port="1"/>
		<edge from-layer="1264" from-port="2" to-layer="1266" to-port="0"/>
		<edge from-layer="1265" from-port="0" to-layer="1266" to-port="1"/>
		<edge from-layer="1266" from-port="2" to-layer="1268" to-port="0"/>
		<edge from-layer="1266" from-port="2" to-layer="1270" to-port="0"/>
		<edge from-layer="1267" from-port="0" to-layer="1268" to-port="1"/>
		<edge from-layer="1268" from-port="2" to-layer="1269" to-port="0"/>
		<edge from-layer="1269" from-port="1" to-layer="1270" to-port="1"/>
		<edge from-layer="1270" from-port="2" to-layer="1272" to-port="0"/>
		<edge from-layer="1271" from-port="0" to-layer="1272" to-port="1"/>
		<edge from-layer="1272" from-port="2" to-layer="1274" to-port="0"/>
		<edge from-layer="1273" from-port="0" to-layer="1274" to-port="1"/>
		<edge from-layer="1274" from-port="2" to-layer="1276" to-port="0"/>
		<edge from-layer="1274" from-port="2" to-layer="1278" to-port="0"/>
		<edge from-layer="1275" from-port="0" to-layer="1276" to-port="1"/>
		<edge from-layer="1276" from-port="2" to-layer="1277" to-port="0"/>
		<edge from-layer="1277" from-port="1" to-layer="1278" to-port="1"/>
		<edge from-layer="1278" from-port="2" to-layer="1280" to-port="0"/>
		<edge from-layer="1279" from-port="0" to-layer="1280" to-port="1"/>
		<edge from-layer="1280" from-port="2" to-layer="1282" to-port="0"/>
		<edge from-layer="1281" from-port="0" to-layer="1282" to-port="1"/>
		<edge from-layer="1282" from-port="2" to-layer="1284" to-port="0"/>
		<edge from-layer="1282" from-port="2" to-layer="1286" to-port="0"/>
		<edge from-layer="1283" from-port="0" to-layer="1284" to-port="1"/>
		<edge from-layer="1284" from-port="2" to-layer="1285" to-port="0"/>
		<edge from-layer="1285" from-port="1" to-layer="1286" to-port="1"/>
		<edge from-layer="1286" from-port="2" to-layer="1288" to-port="0"/>
		<edge from-layer="1287" from-port="0" to-layer="1288" to-port="1"/>
		<edge from-layer="1288" from-port="2" to-layer="1290" to-port="0"/>
		<edge from-layer="1289" from-port="0" to-layer="1290" to-port="1"/>
		<edge from-layer="1290" from-port="2" to-layer="1293" to-port="0"/>
		<edge from-layer="1291" from-port="0" to-layer="1293" to-port="1"/>
		<edge from-layer="1292" from-port="0" to-layer="1293" to-port="2"/>
		<edge from-layer="1293" from-port="4" to-layer="1295" to-port="0"/>
		<edge from-layer="1293" from-port="3" to-layer="1299" to-port="0"/>
		<edge from-layer="1294" from-port="0" to-layer="1295" to-port="1"/>
		<edge from-layer="1295" from-port="2" to-layer="1297" to-port="0"/>
		<edge from-layer="1296" from-port="0" to-layer="1297" to-port="1"/>
		<edge from-layer="1297" from-port="2" to-layer="1298" to-port="0"/>
		<edge from-layer="1299" from-port="1" to-layer="1301" to-port="0"/>
		<edge from-layer="1300" from-port="0" to-layer="1301" to-port="1"/>
		<edge from-layer="1301" from-port="2" to-layer="1303" to-port="0"/>
		<edge from-layer="1302" from-port="0" to-layer="1303" to-port="1"/>
		<edge from-layer="1303" from-port="2" to-layer="1304" to-port="0"/>
	</edges>
	<meta_data>
		<MO_version value="2021.4.2-3974-e2a469a3450-releases/2021/4"/>
		<cli_parameters>
			<caffe_parser_path value="DIR"/>
			<data_type value="FP16"/>
			<disable_nhwc_to_nchw value="False"/>
			<disable_omitting_optional value="False"/>
			<disable_resnet_optimization value="False"/>
			<disable_weights_compression value="False"/>
			<enable_concat_optimization value="False"/>
			<enable_flattening_nested_params value="False"/>
			<enable_ssd_gluoncv value="False"/>
			<extensions value="DIR"/>
			<framework value="onnx"/>
			<freeze_placeholder_with_value value="{}"/>
			<generate_deprecated_IR_V7 value="False"/>
			<input_model value="DIR/picodet_s_416_coco.onnx"/>
			<input_model_is_text value="False"/>
			<k value="DIR/CustomLayersMapping.xml"/>
			<keep_shape_ops value="True"/>
			<legacy_ir_generation value="False"/>
			<legacy_mxnet_model value="False"/>
			<log_level value="ERROR"/>
			<mean_scale_values value="[(array([103.53 , 116.28 , 123.675]), array([57.375, 57.12 , 58.395]))]"/>
			<mean_values value="[103.53,116.28,123.675]"/>
			<model_name value="picodet_s_416_coco"/>
			<output_dir value="DIR"/>
			<placeholder_data_types value="{}"/>
			<progress value="False"/>
			<remove_memory value="False"/>
			<remove_output_softmax value="False"/>
			<reverse_input_channels value="False"/>
			<save_params_from_nd value="False"/>
			<scale_values value="[57.375,57.12,58.395]"/>
			<silent value="False"/>
			<static_shape value="False"/>
			<stream_output value="False"/>
			<transform value=""/>
			<unset unset_cli_parameters="batch, counts, disable_fusing, disable_gfusing, finegrain_fusing, input, input_checkpoint, input_meta_graph, input_proto, input_shape, input_symbol, mean_file, mean_file_offsets, move_to_preprocess, nd_prefix_name, output, placeholder_shapes, pretrained_model_name, saved_model_dir, saved_model_tags, scale, tensorboard_logdir, tensorflow_custom_layer_libraries, tensorflow_custom_operations_config_update, tensorflow_object_detection_api_pipeline_config, tensorflow_use_custom_operations_config, transformations_config"/>
		</cli_parameters>
	</meta_data>
</net>
